articles/00FF0000/exports/model-X.onnx (onnx, 285748 bytes, 6 tensors)

actor_encoder.0.bias f4 [256]
0	0xbd6305c4	-0.05542542
1	0xbe4a6770	-0.19766021
2	0x3e1a1578	0.15047252
3	0x3d9341e4	0.07190302
4	0x3e204a2d	0.15653296
5	0xbe201034	-0.15631181
6	0x3e28400e	0.16430685
7	0x3e85a782	0.2610436
8	0xbd4e0bd2	-0.05030424
9	0x3c6f63c6	0.01461119
10	0x3d8ad647	0.067791514
11	0x3e84800b	0.2587894
12	0x3e1c42da	0.15259877
13	0xbc914e99	-0.017737674
14	0x3d7aabe9	0.061199103
15	0x3e16a6d1	0.14712073
16	0x3d810ac3	0.06300881
17	0xbe35a10f	-0.1773722
18	0xbd684640	-0.05670762
19	0x3dcd4de0	0.10024619
20	0x3e1235a2	0.14278272
21	0x3e354a66	0.17704162
22	0x3dbcf1f4	0.092258364
23	0x3b0fca78	0.002194075
24	0xbe048e6a	-0.12944952
25	0x3e011454	0.12605411
26	0xbe15e864	-0.14639431
27	0xbe205669	-0.15657963
28	0x3e32b47d	0.17451663
29	0x3e8c0a42	0.27351576
30	0xbe5c743d	-0.21528716
31	0x3e5da517	0.21645008
32	0x3e86af09	0.26305416
33	0xbd0a863c	-0.033819422
34	0xba2505e0	-0.0006295126
35	0xbdf26ee0	-0.11837554
36	0xbdad0a89	-0.08449275
37	0xbe34204a	-0.17590442
38	0x3d734932	0.059395976
39	0x3e3463ec	0.17616242
40	0xbd69a087	-0.057037856
41	0xbc59b66a	-0.01328812
42	0x3e31a890	0.17349458
43	0x3c460ef3	0.012088525
44	0x3ca2352f	0.01980075
45	0xbbdd603f	-0.006755858
46	0x3cbcf0cb	0.023064038
47	0x3e9d220f	0.30690047
48	0x3c4f285e	0.012643902
49	0x3ea4620d	0.32106057
50	0x3e6147d1	0.22000052
51	0x3e0ea6c2	0.139308
52	0x3e86fcef	0.26364848
53	0x3e53558a	0.206381
54	0x3e4a1fe8	0.19738734
55	0xbd82353b	-0.06357809
56	0xbe21f803	-0.15817265
57	0xbe27c1d9	-0.16382541
58	0xbd446fbc	-0.04795812
59	0xbe038378	-0.1284312
60	0xbbe8b515	-0.007101665
61	0x3df4d02b	0.119537674
62	0x3e0339d4	0.12815028
63	0x3e661b78	0.22471416
64	0xbe0aa051	-0.13537718
65	0xbe307f55	-0.17236073
66	0x3e325d0b	0.17418306
67	0xbe6a4c68	-0.22880709
68	0xbd8d3358	-0.06894559
69	0xbe1efe2c	-0.15526646
70	0xbe5451de	-0.20734355
71	0x3c96a76b	0.018390378
72	0x3d37b393	0.04484899
73	0xbbebd727	-0.007197279
74	0xbe022a02	-0.12711337
75	0xbdfe4203	-0.124149345
76	0x3ddd8c6d	0.108178
77	0xbe62472c	-0.22097462
78	0xbd7a2498	-0.061070055
79	0x3d6f0327	0.058352616
80	0xbe042ef9	-0.12908544
81	0xbe0c8199	-0.13721313
82	0xbdaf80d2	-0.085694924
83	0xbd8e7514	-0.06955925
84	0xbe84a609	-0.25907925
85	0xbd8d452f	-0.06897961
86	0x3dbdc4df	0.09266066
87	0x3da25c10	0.07927716
88	0xbe679528	-0.22615492
89	0xbdad2ca2	-0.08455779
90	0x3e12f700	0.14352036
91	0xbd3cd963	-0.046105754
92	0x3d86e895	0.0658733
93	0xbe69396a	-0.22775808
94	0x3da1e6bf	0.079053394
95	0xbe2d1e72	-0.16906145
96	0x3e7f39da	0.24924412
97	0x3ddb6383	0.1071234
98	0x3e73f596	0.23824152
99	0x3d90e35b	0.070746146
100	0xbbbb68eb	-0.0057192943
101	0xbc014a09	-0.0078911865
102	0xbdbd8f00	-0.09255791
103	0x3de5cdfd	0.1122093
104	0xbdf0a0b2	-0.117494
105	0xbd411e16	-0.047147833
106	0xbd0c2294	-0.034212664
107	0x3dafcbc0	0.08583784
108	0x3da3ccc9	0.07998044
109	0xbde43ce1	-0.11144424
110	0xb9c60b3a	-0.00037773867
111	0x3d03a688	0.03214124
112	0x3e9640ce	0.29346317
113	0x3e0feafc	0.14054483
114	0xbdcf57b9	-0.10124154
115	0x3d9448fb	0.072404824
116	0xbe27bcd0	-0.1638062
117	0x3d5a8e47	0.053358342
118	0xbcd0c398	-0.025483891
119	0xbe0cf2ed	-0.13764544
120	0xbe165322	-0.1468015
121	0x3e37f3f4	0.17964154
122	0xbe4f6f7e	-0.20257375
123	0xbdabae8c	-0.083829015
124	0xbde0e8f4	-0.10981932
125	0x3d9159be	0.07097195
126	0xbd9df12d	-0.07712016
127	0xbd9ea812	-0.077469006
128	0xbdb1eb1a	-0.0868742
129	0x3c8bd9b4	0.017071582
130	0xbd3770ec	-0.044785425
131	0xbdb6bc5f	-0.08922648
132	0xbe4c536c	-0.19953698
133	0xbd149c2b	-0.036281746
134	0x3e18970b	0.14901368
135	0x3cde75d9	0.027155804
136	0x3d32149a	0.04347668
137	0x3e37b553	0.17940263
138	0x3e4c060b	0.1992418
139	0xbd5b23a6	-0.053500794
140	0xbe163f39	-0.14672555
141	0x3e818364	0.25295556
142	0x3df76a6a	0.12080844
143	0x3eaf2af2	0.34212452
144	0x3db9f87a	0.09080596
145	0xbd114972	-0.035470434
146	0x3e27c322	0.16383031
147	0xbd3789d4	-0.044809178
148	0x3e7fe896	0.24991068
149	0x3da9e12d	0.08294902
150	0xbe6a80ad	-0.22900648
151	0x3de66a7e	0.112507805
152	0x3e0f032e	0.13966057
153	0xbdb84f52	-0.08999504
154	0x3a6ecf62	0.0009109882
155	0xbe71f152	-0.23627213
156	0x3bdabe44	0.0066755135
157	0xbdf71cb9	-0.12066025
158	0x3e82f697	0.25578758
159	0xbd19d3ae	-0.03755539
160	0xbe49457e	-0.19655415
161	0x3d1a802a	0.037719883
162	0x3ca5855c	0.020205192
163	0xbbfac524	-0.0076528955
164	0x3d8fbe27	0.070186906
165	0x3e329661	0.17440178
166	0xbe089def	-0.13341497
167	0xbe19ebd5	-0.15031369
168	0x3cb3f34f	0.021966605
169	0xbe349eb5	-0.17638667
170	0x3dd2d7b4	0.10295048
171	0xbdf3810d	-0.11889849
172	0xbd98b971	-0.07457245
173	0xbe060f9c	-0.13091892
174	0x3e161de3	0.14659838
175	0x3d1db54a	0.03850297
176	0xbe51ae1c	-0.20476574
177	0x3d96868c	0.073498815
178	0xbe120434	-0.14259416
179	0x3e1fd51a	0.15608636
180	0x3e899608	0.26872277
181	0x3e091e7c	0.13390535
182	0xbe78bc83	-0.24290662
183	0xbe3ce332	-0.18446043
184	0xbe3fff90	-0.18749833
185	0x3e70d4c8	0.2351867
186	0xbe24315d	-0.16034456
187	0x3e4ac57f	0.19801901
188	0xbe10aa51	-0.1412747
189	0x3e2c6b38	0.16837776
190	0x3da65660	0.081219435
191	0x3d5f2a05	0.054483432
192	0xbdd70468	-0.10498887
193	0x3e15a46b	0.14613502
194	0x3e9d276d	0.30694142
195	0xbd26544d	-0.04060774
196	0x3c18aa8b	0.009318004
197	0x3e9fd604	0.31217968
198	0x3df7cbf7	0.1209945
199	0xbdfc55aa	-0.123210266
200	0x3e408ec8	0.18804467
201	0xbd55d210	-0.052202284
202	0x3d494a21	0.04914296
203	0x3e8e6ee5	0.2781898
204	0xbd1569da	-0.0364779
205	0xbe5fce83	-0.21856122
206	0xbe4d59d6	-0.20053801
207	0x3e6bb263	0.23017268
208	0x39d3ceb2	0.00040399056
209	0x3d334098	0.043762773
210	0x3e913788	0.2836268
211	0x3dd6b987	0.10484605
212	0xbe1f6688	-0.15566456
213	0x3d0c4e95	0.03425463
214	0x3e4758a8	0.19467413
215	0xbc36598e	-0.01112975
216	0x3e3fb419	0.18721046
217	0x3e04a293	0.12952642
218	0xbcca8846	-0.024723183
219	0x3d0d1f9f	0.034453984
220	0x3dbc23f8	0.09186548
221	0x3c3f7f38	0.011688046
222	0xbd6c052a	-0.057622112
223	0x3e29e35a	0.16590634
224	0xbcc971ca	-0.024590392
225	0xbcb64f27	-0.02225454
226	0xbdaa7172	-0.08322419
227	0x3e82d861	0.2555571
228	0x3e687a87	0.2270299
229	0x3e061872	0.13095263
230	0xbe2b98fd	-0.16757579
231	0x3e213072	0.15741137
232	0x3cff10ab	0.031135878
233	0x3caa4cac	0.020788513
234	0x3d8fc969	0.07020838
235	0x3e88cc13	0.26718196
236	0x3e8e87e5	0.27838054
237	0xbe1d3db6	-0.15355572
238	0x3e92cf84	0.28673947
239	0x3cd03787	0.025417103
240	0x3dddae6f	0.10824286
241	0x3e0c65dc	0.13710731
242	0xbdc74c3a	-0.09731336
243	0x3e9d81eb	0.30763182
244	0xbda2b43b	-0.079445325
245	0xbda61ef7	-0.08111375
246	0x3e16859c	0.14699405
247	0x3e58bb16	0.21165118
248	0xbc1729c7	-0.009226269
249	0xbe0a868d	-0.1352789
250	0x3e8e0eb7	0.27745602
251	0x3d87a3ad	0.066230156
252	0x3d053848	0.032524377
253	0xbe26e2d5	-0.16297467
254	0xbc5f2c0b	-0.0136213405
255	0x3d9554d7	0.072915725

actor_encoder.2.bias f4 [256]
0	0x3c9f2e17	0.019431157
1	0x3cf46e3e	0.029837724
2	0x3d308ce6	0.04310312
3	0xbcdc0fdc	-0.026863031
4	0x3d495b54	0.049159363
5	0xbc671226	-0.014103448
6	0x3c55ba6c	0.013044935
7	0xbdaaa78d	-0.08332739
8	0x3d67df7e	0.056609623
9	0x3b945048	0.004526172
10	0xbd1b6deb	-0.037946623
11	0xbc2fbd07	-0.01072622
12	0x3c8b3e80	0.016997576
13	0xbcd59d9f	-0.026076136
14	0xbd5259d6	-0.051355205
15	0xbcc449b0	-0.023960918
16	0x3d0097be	0.031394713
17	0x3d28670d	0.041113902
18	0xbd0f8b9c	-0.03504525
19	0x3b33e4b6	0.0027449555
20	0xbc27dc18	-0.0102453455
21	0x3ce8a6fe	0.02839994
22	0xbd55885f	-0.052132007
23	0x3d9c1670	0.07621467
24	0xbd2a6f24	-0.0416099
25	0x3c02daf7	0.007986776
26	0x3c93122f	0.017953007
27	0xbc4ed0f0	-0.012623057
28	0x3d75a21e	0.05996906
29	0xbc9c9b56	-0.019117039
30	0x3d50dc4c	0.05099134
31	0xbbd0184c	-0.0063505527
32	0xbcf3ee80	-0.029776812
33	0x3c91efed	0.0178146
34	0xbb871dd6	-0.00412343
35	0xbbe3ca92	-0.0069516385
36	0xbc81271e	-0.015765723
37	0xbcc362e7	-0.023850871
38	0xbd2277e1	-0.039665107
39	0x3cba6986	0.022755396
40	0xbb42a2bd	-0.002969905
41	0xbcdd9d16	-0.027052443
42	0x3cf104b8	0.029421195
43	0x3d0d57e5	0.03450765
44	0x3ccc963d	0.024973983
45	0xbbdd1a00	-0.006747484
46	0x3d4621e0	0.04837215
47	0x3d835b1c	0.06413862
48	0xbcbdab21	-0.02315289
49	0xbb32b244	-0.00272669
50	0xbd33df5d	-0.043914188
51	0x3ca207b4	0.019779064
52	0xbc727421	-0.014798195
53	0xbd940fe9	-0.07229597
54	0xbd16310d	-0.036667872
55	0xbcb28287	-0.021790756
56	0xbdcaab51	-0.09895957
57	0x3d61df8b	0.055144828
58	0xbbd120b3	-0.006382072
59	0x3ade9612	0.001698198
60	0x3d1b90b9	0.037979815
61	0x3dae1408	0.084999144
62	0x3d5b2601	0.05350304
63	0xbcdee06d	-0.027206624
64	0x3c3824f7	0.011239282
65	0x3cbf19de	0.023327764
66	0x3d52f789	0.0515056
67	0x3d5cbe41	0.053892378
68	0xbc627ab2	-0.013823198
69	0xbd4d6240	-0.050142527
70	0x3da38305	0.07983974
71	0x3b61166d	0.0034345642
72	0x3d68ff90	0.05688435
73	0xbc875394	-0.016519345
74	0xbcd11791	-0.025523933
75	0xbc7bc46e	-0.015366657
76	0x3d2e4e1f	0.04255497
77	0xbd4f91af	-0.050676044
78	0x3ccf4cf7	0.025305254
79	0xbd2b3029	-0.041793976
80	0x3d1adad1	0.037806336
81	0x3d205e32	0.03915233
82	0x3ba2323a	0.004949835
83	0xba3f857d	-0.0007305963
84	0x3bc4aafd	0.0060018287
85	0x3d9f45f1	0.07777012
86	0xbc94f815	-0.018184701
87	0xbb27647e	-0.0025542076
88	0xbd552734	-0.05203934
89	0x3d4a5361	0.049395923
90	0x3d5e66f5	0.054297406
91	0xbd7fdcec	-0.062466547
92	0x3c0a56fc	0.00844359
93	0xbb907931	-0.0044089784
94	0x3d7d4457	0.061832752
95	0xbd78fdc3	-0.06078888
96	0x3d59c01f	0.053161737
97	0xbd5d93d5	-0.05409606
98	0xba27bbd4	-0.0006398533
99	0x3d3cda9d	0.046106923
100	0x3d89b864	0.06724623
101	0x3d118578	0.035527676
102	0x3c2a9e6c	0.010413747
103	0xbd1c721d	-0.038194764
104	0xbd8defe7	-0.06930523
105	0x3b39c186	0.0028344109
106	0x3d65b3aa	0.056079544
107	0x3b969e5d	0.004596515
108	0xbcd1603e	-0.025558587
109	0x3d330f8a	0.04371599
110	0xbc6bbbcf	-0.014388039
111	0xbdd1e728	-0.10249168
112	0xbdc36b66	-0.09541969
113	0x3d835c45	0.064140834
114	0xbd793131	-0.06083793
115	0xbc1df1b7	-0.009640149
116	0x3b8f6f77	0.0043773013
117	0xbc3ca736	-0.011514476
118	0x3dbf4b4b	0.09340533
119	0x3d09765d	0.033560146
120	0xbb8ef851	-0.0043630977
121	0xbd56077d	-0.052253235
122	0x3c246e94	0.0100361295
123	0xbd0fbdac	-0.035092995
124	0x3d4aadb9	0.04948208
125	0x3c8c2ca4	0.01711113
126	0x3b49c5ee	0.0030788141
127	0x3db52d33	0.08846512
128	0x3d9b2f12	0.07577337
129	0xbd5e7cad	-0.05431812
130	0xba907a8a	-0.0011022848
131	0x3d484176	0.048890553
132	0x3d10d1f5	0.03535648
133	0xbd5319be	-0.05153822
134	0x3b2fc388	0.0026819427
135	0xbd32e752	-0.043677635
136	0x3d0196dc	0.03163801
137	0x3b0504aa	0.002029697
138	0x3d8b08e0	0.06788802
139	0xbd1fc5b9	-0.039006922
140	0x3d74abc7	0.059734132
141	0xbc703416	-0.014660856
142	0xbd0b51fe	-0.03401374
143	0xbda9b574	-0.082865626
144	0x3d7bda7d	0.061487664
145	0xbd17a4c0	-0.037022352
146	0x3cd58863	0.02606601
147	0x3c299a2f	0.010351702
148	0xbcb37cec	-0.021910153
149	0xbbfa3bcd	-0.0076365233
150	0xbd80e732	-0.06294097
151	0xbad21703	-0.0016028587
152	0xbcf22505	-0.029558668
153	0x3c98caaf	0.018651335
154	0xbc7f79d0	-0.015593007
155	0xbd01a7f6	-0.03165432
156	0xbd87f80e	-0.066391096
157	0x3d3539be	0.04424452
158	0x3db98b40	0.09059763
159	0x3d681daf	0.056668933
160	0xbd1bc42a	-0.038028874
161	0x3c8ef94e	0.017452862
162	0x3bf4d50c	0.007471686
163	0x3cc28e85	0.0237496
164	0x388241d5	6.211145e-05
165	0xbb9ffa86	-0.0048821596
166	0x3997ac76	0.00028929458
167	0x3db25559	0.08707685
168	0xbd200d32	-0.039075084
169	0x3c80ca02	0.015721325
170	0xbd528225	-0.051393647
171	0x3daec664	0.08533934
172	0x3d17da9d	0.03707372
173	0xbd65a179	-0.056062195
174	0x3c617557	0.013760886
175	0x3d972e1b	0.07381841
176	0x3d9f3881	0.07774449
177	0x3d492f4d	0.049117375
178	0xbd0d08a6	-0.034432076
179	0x3d1ea313	0.03872974
180	0x3b69a113	0.0035648986
181	0xbd0e5472	-0.034748502
182	0xbd317fa2	-0.04333461
183	0xbd043025	-0.032272477
184	0xbb671831	-0.0035262222
185	0x3d51b5c2	0.05119873
186	0xbcf6ddff	-0.030135153
187	0x3d5bcbc4	0.053661123
188	0x3dd6b06e	0.1048287
189	0x3d97b3aa	0.07407315
190	0xbce9b280	-0.028527498
191	0xbcfc52aa	-0.030801136
192	0x3d00c064	0.031433478
193	0x3db79a2d	0.089649536
194	0xbd29744d	-0.04137068
195	0xbcb5eaea	-0.022206742
196	0xbcc9bfa1	-0.024627509
197	0xbc1ccd30	-0.009570405
198	0x3ca8d66d	0.020610059
199	0xbcfac8cc	-0.030613326
200	0xbdaced4a	-0.08443697
201	0xbd3d2a6c	-0.046183035
202	0x3d7ec270	0.06219715
203	0x3c58b55e	0.013226835
204	0xbd489f09	-0.048979793
205	0xbd317f92	-0.04333455
206	0xbbe21a31	-0.006900095
207	0xbd90e587	-0.07075029
208	0xbc04b240	-0.008099139
209	0x3ce6e1da	0.028183866
210	0xbd42f155	-0.047593433
211	0xbd1914a7	-0.03737321
212	0xbc836e17	-0.016043706
213	0x3d77509c	0.06037961
214	0x3c7367ea	0.014856318
215	0xbc86fb15	-0.016477147
216	0xbd63445e	-0.055485122
217	0x3d90af2a	0.0706466
218	0x3cb98417	0.022645993
219	0xbd3c7fed	-0.046020437
220	0x3c470970	0.012148246
221	0xbda05b2a	-0.07829888
222	0x3d9b7898	0.07591361
223	0xbd1b2c48	-0.037884027
224	0x3d51a5b4	0.051183417
225	0xbcd2ba24	-0.025723524
226	0x3c61152b	0.013737957
227	0x3d3f293c	0.046670184
228	0xbcef1943	-0.02918685
229	0x3b332550	0.0027335472
230	0xbd40e20c	-0.047090575
231	0xbcdcb4a7	-0.02694161
232	0x3d4366e1	0.047705535
233	0xbcff178c	-0.031139158
234	0xbce4eab5	-0.027943948
235	0x3cc090a9	0.02350648
236	0xbcb53e37	-0.022124393
237	0x3c102a36	0.008799126
238	0x3d9c0dbb	0.076198064
239	0x3d24774f	0.040152844
240	0xbd51a0a2	-0.051178582
241	0x3d5993dd	0.05311953
242	0x3cf0878e	0.029361513
243	0x3c8704f4	0.016481854
244	0x3bb23b37	0.005439188
245	0xbceab30e	-0.028649833
246	0x3d8a4f8a	0.06753452
247	0x3d83920c	0.064243406
248	0x3c19c5a6	0.009385502
249	0x3d0e91b0	0.034806907
250	0xbcb3882a	-0.021915514
251	0x3d129e54	0.035795525
252	0x3d2c6b4f	0.042094525
253	0x3d32506f	0.04353374
254	0xbc9e2ddb	-0.019308975
255	0x3ce598da	0.028026987

pi.0.bias f4 [10]
0	0xbcb82d9f	-0.022482691
1	0x3abb06d6	0.0014269005
2	0x3c0a4b48	0.0084408
3	0x3d6023db	0.054721694
4	0x3d015c5c	0.03158222
5	0x3d0a3bf1	0.03374857
6	0xbc0a8093	-0.008453506
7	0x3d0c3008	0.034225494
8	0x3cc78d01	0.024359228
9	0xbc3776a0	-0.011197716

onnx::MatMul_28 f4 [9, 256]
0	0xbe439068	-0.19098055
1	0xbe87e54a	-0.2654212
2	0xbd186041	-0.03720117
3	0xbc3da0c1	-0.011573971
4	0x3d94652c	0.072458595
5	0xbe0cbd62	-0.13744119
6	0x3e9ce35d	0.30642214
7	0x3bcb9f94	0.0062140916
8	0x3e902bca	0.28158408
9	0x3d3327a1	0.043738965
10	0xbec757c9	-0.38934162
11	0x3ec7c3c5	0.39016548
12	0xbe61deec	-0.22057694
13	0xbe866483	-0.2624856
14	0x3ecf9cfb	0.40549454
15	0xbe476a0e	-0.1947405
16	0xbed71d6f	-0.42014644
17	0xbe42e59d	-0.19032903
18	0xbd96ba33	-0.073597334
19	0x3e2a4847	0.16629134
20	0x3e6949e7	0.22782098
21	0xbe9cf15e	-0.306529
22	0x3e7832c9	0.24238123
23	0x3ef07689	0.46965435
24	0x3e86e917	0.26349708
25	0xbe202a2e	-0.1564109
26	0xbe7b4870	-0.24539351
27	0xbea79bca	-0.32736045
28	0x3e7a6751	0.24453475
29	0x3e03031a	0.12794152
30	0x3c945137	0.018105133
31	0xbe1654fe	-0.1468086
32	0x3e6219b3	0.22080116
33	0x3e8263f1	0.25466874
34	0xbe1e9a35	-0.15488513
35	0x3e1cd7c6	0.15316686
36	0x3e3d1a9f	0.18467186
37	0xbe898dfa	-0.26866132
38	0xbe19302b	-0.14959781
39	0x3d1a9ac6	0.03774526
40	0xbe6e311b	-0.2326092
41	0xbee965e1	-0.4558554
42	0xbeca36bd	-0.39494887
43	0x3d006770	0.031348646
44	0x3ed9cd74	0.4253956
45	0x3dce6ee7	0.10079747
46	0x3e92de8e	0.2868542
47	0xbeeeea33	-0.46663055
48	0xbec06eaf	-0.37584445
49	0xbe3ba2a5	-0.18323763
50	0xbe17eead	-0.14837141
51	0xbebf2c79	-0.37338617
52	0x3eb6a07b	0.35669312
53	0xbe0f5223	-0.13996176
54	0xbef73b43	-0.482874
55	0x3ddad391	0.10684884
56	0xbe6c313e	-0.2306566
57	0x3dd80e39	0.10549588
58	0x3e3b223b	0.18274777
59	0x3d57170e	0.05251222
60	0xbea4d761	-0.3219557
61	0xbead5af4	-0.33858454
62	0x3e57ce65	0.21074827
63	0x3efb5f72	0.49096256
64	0xbdcbffe4	-0.09960917
65	0xbd5b8a0b	-0.053598445
66	0x3ca0cd72	0.019629214
67	0xbd13dc88	-0.036098987
68	0x3f086a90	0.532876
69	0x3e2f849d	0.17140432
70	0x3e704e55	0.23467381
71	0xbe8b8415	-0.27249208
72	0xbdf5a88a	-0.11995037
73	0x3e79a470	0.24379134
74	0x3d80ed10	0.06295216
75	0x3e9e28a1	0.30890372
76	0xbee37d44	-0.44431508
77	0x3e4f0d81	0.20219995
78	0x3e6c94ae	0.23103592
79	0x3eb98d77	0.36240742
80	0xbeefe2fb	-0.4685286
81	0xbe841721	-0.25798896
82	0x3ee3b8ce	0.44476932
83	0xbccfabaa	-0.02535041
84	0x3ef6e58a	0.48222
85	0x3e7cb3b0	0.2467792
86	0x3ef39f4b	0.47582468
87	0x3d39578e	0.045249514
88	0xbe302198	-0.17200315
89	0x3ee73a7b	0.45161805
90	0x3e7096c4	0.23495013
91	0xbea7f0eb	-0.32800993
92	0xbe91fbbd	-0.28512374
93	0x3dc7374b	0.09727343
94	0x3cea994e	0.028637554
95	0x3ec260bb	0.37964424
96	0xbd0aa6bb	-0.033850413
97	0xbeab8fe3	-0.33508214
98	0xbe8faaea	-0.28060085
99	0x3e990edd	0.29894152
100	0x3e2b99a2	0.16757825
101	0xbf078152	-0.529317
102	0x3df3ea4a	0.119099215
103	0x3ecaf83d	0.39642516
104	0xbeac606f	-0.33667323
105	0x3e21c900	0.15799332
106	0x3da968c7	0.08271938
107	0xbe839677	-0.25700733
108	0x3db29021	0.08718897
109	0x3ef2a2fe	0.47389978
110	0xbeaf9b8d	-0.34298363
111	0x3e912665	0.28349605
112	0x3ef24bb5	0.47323385
113	0xbd43f803	-0.047843944
114	0x3d2f9822	0.042869695
115	0xbe90e98d	-0.28303185
116	0xbddcb646	-0.107769534
117	0x3e805558	0.25065112
118	0xbe154f31	-0.1458099
119	0xbdc28e4f	-0.094997995
120	0xbdf2b52f	-0.11850964
121	0xbd53e0fe	-0.05172824
122	0x3c1e5c4a	0.009665558
123	0xbea2bf58	-0.3178661
124	0xbe7407c0	-0.23831081
125	0x3ec30df5	0.38096586
126	0x3e8aed3a	0.27134115
127	0x3e0e825c	0.13916916
128	0xbe9e3c07	-0.30905172
129	0x3cbd80cc	0.023132704
130	0xbe5987a2	-0.21243146
131	0xbe776fea	-0.24163786
132	0xbed20fb2	-0.410276
133	0x3e47ad75	0.19499762
134	0x3e04b05c	0.12957901
135	0xbd8e8587	-0.06959062
136	0xbeb887ee	-0.36041206
137	0xbd813d8c	-0.06310567
138	0x3eba37ab	0.36370596
139	0xbc637715	-0.013883372
140	0xbc01d418	-0.007924102
141	0x3e924781	0.28570178
142	0x3db6310a	0.08896072
143	0xbe0f6f5b	-0.14007322
144	0xbebe00dc	-0.3711003
145	0xbe98cf6e	-0.29845756
146	0xbeb685de	-0.35649008
147	0xbe3b52a8	-0.1829325
148	0xbe7ec36e	-0.24879238
149	0xbe86d1a1	-0.2633181
150	0xbe556b35	-0.20841677
151	0x3f0123fe	0.50445545
152	0x3ef0cccc	0.47031248
153	0x3e427c68	0.1899277
154	0x3ebca296	0.36842793
155	0x3eea589a	0.45770723
156	0xbe9adeb9	-0.3024805
157	0xbdd115ea	-0.10209258
158	0x3e8da15a	0.27662164
159	0xbc4760b1	-0.012169049
160	0x3e1d7aca	0.15378872
161	0xbe9d3c81	-0.30710223
162	0xbe4f2790	-0.20229936
163	0xbe7b898d	-0.2456419
164	0x3ead628a	0.33864242
165	0x3ebd10ec	0.36926973
166	0x3ed7694d	0.42072526
167	0xbe49bdef	-0.1970136
168	0xbe86d495	-0.26334062
169	0x3dbc5a67	0.091969304
170	0xbec48e0d	-0.38389626
171	0xbe970db6	-0.29502648
172	0x3eb9df36	0.3630311
173	0x3e5252e8	0.20539439
174	0xbe729ab5	-0.23691829
175	0xbefd3371	-0.4945331
176	0xbdb4a03c	-0.08819625
177	0x3e25e68d	0.1620123
178	0xbe83466d	-0.25639668
179	0xbe5a07e7	-0.21292077
180	0xbe809ef3	-0.2512127
181	0x3c7e87ac	0.015535276
182	0x3ebc4bef	0.36776683
183	0xbeaa38cc	-0.33246458
184	0x3e882b9e	0.26595777
185	0xbe095171	-0.13409974
186	0x3d88ed41	0.066858776
187	0x3f160002	0.5859376
188	0xbed6a1c0	-0.4192028
189	0xbd002c4c	-0.031292245
190	0xbedc5e71	-0.43040803
191	0x3ea4bf56	0.32177228
192	0x3ef83c74	0.48483622
193	0x3eb7bc1b	0.358857
194	0xbe0c993d	-0.13730331
195	0xbd9dbcdb	-0.07702037
196	0xbe85f02f	-0.26159808
197	0xbcfb83de	-0.030702528
198	0xbe626e9a	-0.22112504
199	0x3efbe279	0.49196222
200	0x3e3ba899	0.18326034
201	0x3d9a86d0	0.07545245
202	0x3eb6faa5	0.35738102
203	0xbe4bf1b7	-0.19916426
204	0xbe869127	-0.26282617
205	0xbedb358c	-0.4281429
206	0x3eb63f0d	0.3559498
207	0x3e31a796	0.17349085
208	0x3e572498	0.21010053
209	0x3e37ec7b	0.17961304
210	0x3e556b2f	0.20841669
211	0x3e04834b	0.1294071
212	0xbe18dce6	-0.14928016
213	0xbede1896	-0.43378133
214	0x3ea5cf6c	0.32384813
215	0x3e923b38	0.28560805
216	0x3ec1c5f8	0.3784635
217	0xbed34940	-0.41266823
218	0x3e98e21a	0.29860002
219	0xbea1508d	-0.31506768
220	0xbeb95784	-0.36199582
221	0x3e4c20d2	0.19934395
222	0xbc9b17af	-0.018932192
223	0x3d79d130	0.060990512
224	0x3c11cd53	0.008899051
225	0xbe8b9eda	-0.27269632
226	0xbe8c9f5b	-0.2746533
227	0x3e1f9d13	0.15587263
228	0xbeb1f273	-0.34755287
229	0x3dd8fe95	0.10595433
230	0xbe9e3d2b	-0.30906042
231	0x3e4bb7e6	0.1989437
232	0xbe603e43	-0.21898751
233	0xbecf88af	-0.4053397
234	0x3e11d6ef	0.14242147
235	0xbe105051	-0.14093138
236	0x3e610329	0.21973862
237	0x3d894f2d	0.06704555
238	0x3eca571b	0.3951958
239	0x3ccc7e57	0.024962587
240	0xbdf63bf4	-0.12023154
241	0x3bcaf285	0.0061934614
242	0x3cce8d23	0.025213784
243	0xbef22edc	-0.47301376
244	0x3eb7ad4f	0.3587441
245	0x3ea1b0f4	0.31580317
246	0x3e3174a5	0.17329653
247	0xbe89da35	-0.2692429
248	0x3ec7f607	0.3905489
249	0xbe571e29	-0.21007599
250	0x3e11ffa6	0.14257678
251	0x3e7beeb9	0.24602784
252	0x3e55a1fe	0.20862576
253	0x3cb64c89	0.022253292
254	0xbe845dc8	-0.258528
255	0xbe5aef94	-0.21380454

onnx::MatMul_29 f4 [256, 256]
0	0xba1347e2	-0.00056183164
1	0x3cddb775	0.027065018
2	0x3cd8d6f2	0.026469681
3	0xbcbf667e	-0.023364302
4	0xbe2be74d	-0.16787453
5	0xbe073203	-0.13202672
6	0xbb308c57	-0.0026939118
7	0x3d7d08f0	0.0617761
8	0xbc24788a	-0.010038504
9	0xbc0b4ffd	-0.008502957
10	0xbe018574	-0.12648565
11	0xbda8f36d	-0.08249555
12	0x3da6255e	0.08112596
13	0x3e070e1b	0.13188975
14	0xbc2d95aa	-0.010594765
15	0xbde63999	-0.11241455
16	0x3ce2ede3	0.027701324
17	0x3dc634f9	0.096780725
18	0x3c23973a	0.009984786
19	0xbc77d898	-0.015127324
20	0xbd81de17	-0.063411884
21	0xbe25efd8	-0.16204774
22	0x3db5541f	0.088539355
23	0x3dddf4d2	0.108377114
24	0x3d5ee7fa	0.05442045
25	0xbda45805	-0.08024601
26	0x3cab3a2e	0.020901766
27	0x3e00002b	0.12500064
28	0x3d49f3c8	0.049304754
29	0xbcf26849	-0.029590743
30	0x3d699858	0.057030052
31	0xbd555947	-0.052087095
32	0x3be4ea83	0.006985964
33	0x3da5c6b4	0.0809454
34	0x3e157281	0.14594461
35	0xbd6f70cd	-0.058457185
36	0x3e060aca	0.13090053
37	0x3e1de86e	0.15420696
38	0x3b3a3525	0.0028413024
39	0x3dabfc24	0.083977014
40	0x3db68b9f	0.08913349
41	0xbd901542	-0.070353046
42	0x3dc61c3b	0.09673353
43	0xbd9d1e1c	-0.076717585
44	0x3d78683d	0.060646284
45	0x3e6c3b15	0.23069413
46	0xbde5cf3f	-0.1122117
47	0xbe777aeb	-0.24167983
48	0xbd9042e9	-0.07044012
49	0x3ce03462	0.027368728
50	0xbd343d36	-0.044003688
51	0x3d94edf7	0.07271951
52	0x3d84bd0e	0.06481372
53	0xbc421045	-0.011844699
54	0x3d7c935d	0.061663974
55	0x3e215795	0.15756066
56	0x3d946807	0.07246404
57	0x3da71711	0.081586964
58	0x3dd23a9e	0.102650866
59	0x3d46bee0	0.048521876
60	0xbcfc56c7	-0.030803097
61	0xbd5f981a	-0.054588415
62	0xbd9a7f9b	-0.0754387
63	0xbdb983a6	-0.09058313
64	0xbe0ec89c	-0.13943714
65	0x3db61c0c	0.08892068
66	0x3c88e6a6	0.016711544
67	0x3dbcd25c	0.0921981
68	0x3e05f0fd	0.13080211
69	0xbdcea591	-0.10090173
70	0x3db92684	0.090405494
71	0xbde061ac	-0.109561294
72	0xbca719e8	-0.020398095
73	0x3d8fdbc3	0.07024338
74	0x3e303b96	0.1721023
75	0x3d1681d1	0.036744896
76	0x3cae0f97	0.021247668
77	0xbd098699	-0.033575628
78	0x3e1b7421	0.15181018
79	0x3c450fa1	0.012027652
80	0xbca76f54	-0.020438828
81	0x3d0e050a	0.034672774
82	0xbdbbe335	-0.09174196
83	0xbe2fb4be	-0.17158791
84	0x3c45afb5	0.012065818
85	0x3df798e7	0.12089711
86	0x3d637695	0.05553301
87	0xbe5b0c5e	-0.21391436
88	0x3e0015db	0.12508337
89	0x3e209ae5	0.15684088
90	0xbd1e19f1	-0.03859896
91	0x3dd020f2	0.10162534
92	0x3d943efd	0.072385766
93	0x3ce7b741	0.028285624
94	0xbeba3e57	-0.36375687
95	0x3d8f2d89	0.06991107
96	0x3e3bce3d	0.18340392
97	0xbe19011d	-0.14941831
98	0xbd7571b7	-0.0599229
99	0xbd39c3d9	-0.04535279
100	0xbe949933	-0.29023132
101	0xbd753479	-0.059864495
102	0xbd9d20d1	-0.07672275
103	0xbdea2a18	-0.1143381
104	0x3e75c37f	0.24000357
105	0x3d90f1e0	0.07077384
106	0xbd3fb18e	-0.04680019
107	0xbc433d08	-0.011916406
108	0x3d7bbb8b	0.06145815
109	0xbda3b7b9	-0.07994027
110	0xbe312c1c	-0.17301983
111	0xbcad08d4	-0.021122374
112	0xbe308b41	-0.17240621
113	0x3dd89021	0.105743654
114	0xbc83ab36	-0.01607285
115	0x3e0af864	0.13571316
116	0x3d43a657	0.047766056
117	0x3d441de4	0.04788007
118	0xbc95eb79	-0.018300759
119	0x3dabf8ab	0.08397039
120	0xbca940cb	-0.020660779
121	0x3e109df6	0.14122757
122	0xbc0de99f	-0.008661657
123	0xbd7a128a	-0.061052836
124	0xbdf12beb	-0.11775955
125	0xbe182c8f	-0.14860748
126	0xbe1b0820	-0.15139818
127	0x3ca8156b	0.020518025
128	0xbce47d95	-0.027891913
129	0xbe58504e	-0.21124384
130	0xbc418afe	-0.0118129235
131	0x3df6bf06	0.120481536
132	0x3d404754	0.046943024
133	0x3e11115a	0.14166775
134	0xbdad4ff4	-0.084625155
135	0xba75e4d5	-0.0009380107
136	0x3e3f896e	0.18704769
137	0xbcae72cd	-0.021294976
138	0x3e0057f5	0.12533553
139	0xbda73151	-0.08163703
140	0x3dd4a187	0.103823714
141	0x3d0e0536	0.03467294
142	0x3d3ed7a0	0.046592355
143	0x3db04dcb	0.08608588
144	0x3ca0b74d	0.019618655
145	0x3d8a5e33	0.06756248
146	0x3d0cc955	0.034371693
147	0x3c836a86	0.016042005
148	0x3d8379c0	0.06419706
149	0xbc3454a9	-0.011006513
150	0xbd933b2d	-0.07189021
151	0xbe1e26b5	-0.15444453
152	0xbe330812	-0.17483547
153	0x3dbfc3fb	0.09363552
154	0xbd787325	-0.060656685
155	0x3c4a5e1f	0.012351542
156	0x3db737e1	0.08946205
157	0x3df86a08	0.12129599
158	0xb9cc85e6	-0.00039009674
159	0x3d25bebe	0.04046511
160	0xbe3d94b1	-0.18513753
161	0x3d17d7bb	0.03707097
162	0x3e38395e	0.17990634
163	0x3d86142b	0.065468155
164	0xbd412833	-0.047157478
165	0x3dd6842e	0.1047443
166	0xbe59175c	-0.21200317
167	0xbe813742	-0.2523747
168	0x3cf74c85	0.030187855
169	0xbd894fd5	-0.0670468
170	0x3d2c0906	0.042000793
171	0xbcc1a5df	-0.023638664
172	0xbe15ed24	-0.14641243
173	0xbd4fef6c	-0.05076544
174	0xbc083322	-0.008312972
175	0xbe73fa9e	-0.23826072
176	0xbe239559	-0.1597494
177	0xbd5f20f8	-0.0544748
178	0xbd3431bb	-0.04399274
179	0xbdc19542	-0.09452297
180	0x3e164bf5	0.14677413
181	0xbcf7df0f	-0.03025773
182	0x3d295244	0.04133822
183	0x3cec3429	0.028833466
184	0x3e97cbdd	0.29647723
185	0x3cefb01b	0.029258778
186	0xbb86e57d	-0.0041167126
187	0xbda7be6a	-0.081906155
188	0xbdd8c764	-0.10584906
189	0xbdf38aaa	-0.118916824
190	0xbdda7d0a	-0.106683806
191	0xbbaf63bc	-0.0053524654
192	0xbe331b0c	-0.17490786
193	0x3dcfa6d7	0.10139244
194	0x3dda7e0b	0.10668572
195	0xbca1808e	-0.01971462
196	0xbdd88d5a	-0.10573836
197	0x3b9e456f	0.0048300545
198	0xbc71b594	-0.014752764
199	0x3d557f3a	0.052123286
200	0x3ddb56ae	0.10709892
201	0xbc8c88bc	-0.017155044
202	0x3e315057	0.17315803
203	0xbc8cfc70	-0.017210215
204	0x3d909421	0.07059503
205	0xbd2a3662	-0.04155577
206	0x3df95dbe	0.12176083
207	0xbe7df29f	-0.24799584
208	0x3da5f705	0.08103756
209	0x3e32003a	0.17382899
210	0xbd61ce7b	-0.055128556
211	0xbca5b936	-0.020229917
212	0xbdfad77d	-0.122481324
213	0xbe1d55bf	-0.15364741
214	0x3d81f076	0.063446924
215	0xbda4367e	-0.08018206
216	0xbe30afd8	-0.17254579
217	0x3e534c22	0.20634511
218	0x3cc0b087	0.023521675
219	0xbe176e5c	-0.14788193
220	0x3e1f80cb	0.15576474
221	0x3dfdce90	0.12392914
222	0x3e7213c0	0.23640347
223	0xbdad3d07	-0.08458906
224	0x3df7f7e0	0.12107825
225	0xbd494fd5	-0.0491484
226	0x3dcbd7a8	0.099532425
227	0x3daa62c1	0.08319617
228	0xbe144ebe	-0.14483163
229	0xbc7076d0	-0.014676765
230	0xbd9a3962	-0.07530476
231	0xbcc3dc7e	-0.02390885
232	0x3d5ea990	0.054360926
233	0x3ca1f13b	0.019768348
234	0xbc6dc719	-0.014512801
235	0xbd8d384a	-0.06895502
236	0x3db09181	0.08621503
237	0xbc577c2e	-0.013152165
238	0x3d9566af	0.07294976
239	0x3c052d86	0.008128529
240	0x3d11fc25	0.035640854
241	0x3cc927ae	0.024555054
242	0x3d6b4d13	0.05744655
243	0xbd85de29	-0.06536514
244	0xbd7b833f	-0.061404463
245	0x3dc11a4f	0.09428846
246	0xbe0c1734	-0.13680726
247	0xbd1a9681	-0.037741188
248	0xbd2a5549	-0.04158524
249	0x3cf0be8f	0.02938774
250	0x3d76d4bb	0.06026147
251	0xbd04933b	-0.032366972
252	0xbe4da122	-0.20080999
253	0xbcf0ac20	-0.02937895
254	0x3e17a9b9	0.14810838
255	0xbe1e5bbc	-0.15464681

onnx::MatMul_30 f4 [256, 10]
0	0xbdfb5dc4	-0.12273744
1	0xbd4ed901	-0.05049992
2	0x3db9b435	0.09067575
3	0xbdd35e8a	-0.10320766
4	0x3e0ce87c	0.13760561
5	0xbe3aa555	-0.18227132
6	0x3e18bb87	0.14915286
7	0x3d219b7c	0.039454922
8	0xbe0ab48b	-0.13545434
9	0xbcdaa65c	-0.026690654
10	0x3e0381ad	0.12842436
11	0xbe610f48	-0.21978486
12	0x3de616de	0.1123483
13	0x3d01293d	0.03153347
14	0x3dc764ac	0.097359985
15	0x3c58bc26	0.013228452
16	0x3e1bef41	0.15227987
17	0xbdeb0379	-0.11475272
18	0xbe472e8f	-0.19451354
19	0xbd78479a	-0.06061516
20	0xbd177c4a	-0.036983766
21	0xbe141fb5	-0.1446522
22	0x3dc24b9e	0.09487079
23	0xbe110480	-0.14161873
24	0x3e157c9b	0.14598314
25	0x39b4f54d	0.0003451504
26	0x3d1f7180	0.0389266
27	0xbc7ed8b6	-0.015554598
28	0x3dc0215a	0.09381361
29	0x3d658f7c	0.05604504
30	0x3e2f103e	0.1709604
31	0xbdf93b4c	-0.12169513
32	0x3e409591	0.18807055
33	0xbd83e9c1	-0.064410694
34	0xbd9136e3	-0.07090547
35	0x3e094ca6	0.13408145
36	0x3ddcf2ce	0.10788499
37	0xbdab1226	-0.08353071
38	0xbe50b664	-0.20382077
39	0x3ccb17c4	0.024791606
40	0x3e11210c	0.14172763
41	0x3d90b939	0.070665784
42	0xbd7ca7ae	-0.06168335
43	0xbe1f2337	-0.15540777
44	0x3da7d067	0.081940465
45	0xbe2b2623	-0.16713767
46	0xbd4e48fd	-0.050362576
47	0x3d99429b	0.07483407
48	0x3dd35a70	0.10319984
49	0xbd42fef8	-0.04760644
50	0x3e2a9568	0.16658556
51	0x3e09f929	0.13473953
52	0xbd50bc02	-0.05096055
53	0xbda040b6	-0.07824843
54	0x3df4ac90	0.11946976
55	0x3de64bd3	0.11244931
56	0xbe52ac81	-0.20573618
57	0xbd5cf903	-0.053948414
58	0x3d8e48ae	0.06947456
59	0x3d59714e	0.05308657
60	0xbe5f934d	-0.21833535
61	0x3d94578e	0.07243262
62	0x3dd8151d	0.10550902
63	0xbe2db9b2	-0.16965368
64	0x3d4ee112	0.050507613
65	0x3df6523f	0.12027406
66	0xbe200925	-0.15628488
67	0x3db36d2c	0.08761057
68	0x3d0eb80b	0.034843486
69	0x3d279602	0.040914543
70	0x3d8807c0	0.06642103
71	0xbd7fceff	-0.062453266
72	0x3c4ae4e3	0.012383672
73	0xbb8e1da9	-0.004337032
74	0x3e12f002	0.14349368
75	0x3c5e85db	0.013581718
76	0x3d518c2b	0.051159065
77	0xbe7dc83e	-0.24783418
78	0x3d9df61f	0.077129595
79	0xbc3689a8	-0.011141218
80	0xbda572c9	-0.08078534
81	0xbb3a5bd0	-0.0028436072
82	0x3deb30e5	0.11483935
83	0xbe446f7f	-0.19183157
84	0x3d86dddd	0.06585286
85	0xbae58be5	-0.0017513005
86	0xbde5aed7	-0.11214989
87	0x3d4939b0	0.04912728
88	0x3e11d705	0.1424218
89	0x3d282d64	0.041058913
90	0xbe7015e4	-0.2344585
91	0x3e1aac23	0.15104727
92	0xbe4bc78a	-0.19900337
93	0x3dc7ddfa	0.097591355
94	0x3df71595	0.12064663
95	0xbe721a2a	-0.23642793
96	0x3e204e7e	0.15654942
97	0x3e26dd5e	0.16295382
98	0xbd9a98ab	-0.0754865
99	0x3c21e978	0.009882323
100	0xbe3cb2ff	-0.18427657
101	0x3c923ed8	0.017852232
102	0x3de899e9	0.11357481
103	0xbe02a406	-0.12757882
104	0x3e217ad3	0.1576951
105	0x3d531be7	0.05154028
106	0xbe085de5	-0.13317068
107	0xbd2671b7	-0.04063579
108	0x3d6a71a4	0.057237282
109	0x3d150f66	0.03639164
110	0xbe1a531b	-0.15070765
111	0xbe194bdb	-0.14970343
112	0xbd9cf7e0	-0.07664466
113	0x3c0b7fc3	0.0085143475
114	0xbd2b1c9d	-0.041775335
115	0x3e643924	0.22287422
116	0x3dae1dcd	0.08501778
117	0xbdb4e7c3	-0.088332675
118	0x3e4567b9	0.19277848
119	0xbcc38400	-0.023866653
120	0xbd223a94	-0.039606646
121	0x3d64eefa	0.05589197
122	0x3db0e5fe	0.086376175
123	0xbe8e60cc	-0.27808225
124	0x3e4dcc9a	0.2009758
125	0x3d7883f9	0.060672734
126	0xbd4e3e68	-0.050352484
127	0x3e1321bd	0.14368339
128	0x3d0d1a1c	0.034448728
129	0xbc198720	-0.009370595
130	0x3d985f98	0.07440108
131	0xbcef6ce4	-0.029226728
132	0x3e03052b	0.1279494
133	0xbdbb2628	-0.09138137
134	0xbe206837	-0.15664755
135	0xbe5d935c	-0.21638244
136	0x3e235674	0.15950948
137	0xbd833583	-0.06406691
138	0x3c9613af	0.018319933
139	0xbd2e8614	-0.042608336
140	0xbc88f6b4	-0.0167192
141	0x3d410c6c	0.047130987
142	0xbe9d4008	-0.30712914
143	0x3e1ba4a0	0.15199518
144	0xbddcc8eb	-0.107805096
145	0x3ca4146b	0.020029267
146	0x3d63c851	0.05561096
147	0x3c997439	0.018732177
148	0xbe923f28	-0.2856381
149	0x3cf46020	0.029830992
150	0xbe058a6e	-0.13041088
151	0x3e1557e7	0.14584313
152	0x3e2715bf	0.16316889
153	0xbca0ded9	-0.019637512
154	0x3cea3304	0.02858878
155	0xbe3ddf32	-0.18542174
156	0xbe5f69b1	-0.21817662
157	0xba398c50	-0.0007078098
158	0xbbfde4ea	-0.007748236
159	0xbcedddb4	-0.02903638
160	0x3dd60b9f	0.10451435
161	0xbda5e5c0	-0.08100462
162	0xbc3de76d	-0.011590821
163	0xbdbb0c13	-0.09133162
164	0x3e3c0f6f	0.18365262
165	0x3c38402e	0.01124577
166	0xbd2e3f61	-0.04254091
167	0xbd5159da	-0.05111108
168	0xbe77b9c0	-0.24191952
169	0x3d18045a	0.037113525
170	0x3c801607	0.015635503
171	0xbe724c5a	-0.23661938
172	0xbc039fb7	-0.008033684
173	0xbd5e757c	-0.05431126
174	0xbda5be3c	-0.08092925
175	0xbc9f25c6	-0.019427191
176	0x3cecf211	0.02892402
177	0x3e46190d	0.19345494
178	0x3d6316de	0.05544173
179	0x3d35528c	0.044268176
180	0xbd4013aa	-0.046893753
181	0xbc6bb0fc	-0.014385458
182	0x3e33d290	0.17560792
183	0xbdd26bc3	-0.1027446
184	0x3d00f1a8	0.03148046
185	0x3db8f42c	0.09030947
186	0xbd538b50	-0.05164653
187	0xbda07f8b	-0.07836827
188	0xbd8e9ce3	-0.069635175
189	0x3d6e758c	0.05821757
190	0x3e06882b	0.13137881
191	0x3db3de79	0.08782668
192	0xbd6c0cff	-0.05762958
193	0x3bb560c3	0.0055352165
194	0xbc80744b	-0.015680453
195	0x3d3584ab	0.044315975
196	0x3df60262	0.12012173
197	0x3d24a975	0.04020067
198	0xbeb6957c	-0.35660923
199	0x3d4a1e0e	0.04934507
200	0xbc5ce102	-0.01348138
201	0x3e3eee1a	0.18645516
202	0xbdaf61bc	-0.08563563
203	0xbe9aba91	-0.30220464
204	0xbde107ae	-0.10987793
205	0xbd9908ca	-0.074723795
206	0x3e23795c	0.15964264
207	0x3e404a63	0.18778376
208	0x3da36b04	0.07979396
209	0x3d69c226	0.05706992
210	0xbe0100c1	-0.12597944
211	0x3e4c9468	0.19978487
212	0xbd976fdc	-0.07394382
213	0xbe563c60	-0.20921469
214	0x3e86d067	0.26330873
215	0xbd0d6a1b	-0.03452502
216	0xbcaaa462	-0.020830337
217	0x3de39b02	0.1111355
218	0x3d6209dd	0.055185188
219	0x3d7b9056	0.061416946
220	0x3d5a197e	0.053246967
221	0x3c9598a2	0.018261258
222	0x3cc26170	0.023728102
223	0xbd0a659b	-0.033788305
224	0xbe5d0117	-0.21582447
225	0x3da547a2	0.080703035
226	0xbce47aec	-0.027890645
227	0x3e1d9162	0.1538749
228	0xbd668d19	-0.056286905
229	0xbcda6d1c	-0.026663356
230	0x3d644383	0.055728447
231	0xbd713c79	-0.05889556
232	0xbdc5159d	-0.09623263
233	0x3d5a3fa1	0.053283338
234	0x3d32e32f	0.04367369
235	0xbd389c39	-0.04507086
236	0x3dd3577e	0.10319422
237	0xbe00f0e0	-0.12591887
238	0x3c56e783	0.01311672
239	0x3c8496c8	0.01618518
240	0x3be8de33	0.0071065663
241	0x3e11fee9	0.14257397
242	0xbe19d36a	-0.15022054
243	0x3e0505b9	0.12990464
244	0x3e0cb0e7	0.13739358
245	0xbdcf0682	-0.10108663
246	0xbbcfcce3	-0.006341563
247	0x3ddc60f1	0.107606776
248	0xbe7577f4	-0.2397154
249	0xbd110b5c	-0.035411224
250	0x3de31912	0.11088766
251	0x3e182dd3	0.1486123
252	0xbeaced8d	-0.33774987
253	0x3e4a0d50	0.19731641
254	0xbdf0075d	-0.117201544
255	0xbeab1072	-0.33410984
