articles/00FF0000/exports/model-O.onnx (onnx, 285748 bytes, 6 tensors)

actor_encoder.0.bias f4 [256]
00000000: 94cf 27be 8b1a 9e3e 91da 3b3e 86ce b23e
00000010: 28ef 18be 879f 98bd 81bd b33d cf2c 19bd
00000020: 146f 8ebc 7925 e33e 5e95 9ebd 464c 953d
00000030: e211 56bd e60a 393e 889b 49be 3bf0 3c3d
00000040: 0fa8 2e3e 1183 173e 3f60 edbd 0f7c 29be
00000050: 9d43 38be 19e1 20bd 483b aabc 281b 0d3e
00000060: e452 873d ee3d 923e 2278 6a3e 0a54 313e
00000070: ba23 33bc c0f3 17be d357 9a3c 2d09 883e
00000080: d6e0 cebd 894d d1bd a9d5 6b3e 6401 1c3e
00000090: f326 653c 11ef a4bd 42bb 66be 484c 733e
000000a0: 1aa5 a5bd c5b5 993e c4bb 883e b6fa 3ebe
000000b0: 8616 843e aaf4 893e 253a 89bd 25cf 5a3e
000000c0: 32c8 663e 4a53 b2bd 7f0f adbe f278 9a3e
000000d0: 004f bf3e 06fc fbbd 374d b83e aa81 da3d
000000e0: da0d 193e e57f 273e b249 023e 94c2 883e
000000f0: c784 013e 4532 9c3e c47d ebbd f496 673e
00000100: d575 993e bcab a1bc 82b2 0abe de3c f2bd
00000110: 2c50 edbd 1464 0a3e 1bd8 c93d 3c94 edbc
00000120: 4662 de3e 1bec 2abe d952 39be 5d1a b63d
00000130: e16d 98be 56c6 553d cff6 78be 5b11 763e
00000140: 761a de3c d914 8abd 2167 b03e 6c34 063d
00000150: a021 31be dc12 b53d 470f fdbd 1362 b6bd
00000160: 2c2e d43d fc9f ff3c f77c 513e 646c 9b3e
00000170: 43c5 d53d 16d1 14be fe34 f7bd ee0f aa3e
00000180: b680 61be a46c 883d f3f0 7b3e 2851 4ebc
00000190: fa1c d83c 9262 e8bd 3ee1 4c3e acf1 8d3d
000001a0: 9252 573c 5414 943e bc09 33be 5457 033e
000001b0: ba4e 5ebe f193 373e dddc cabd 886f 2c3d
000001c0: 57e3 573e 489d 0d3e 0cdf be3d 9ff4 94be
000001d0: 72e0 993e da4f 813e 9cd6 5dbe b973 913d
000001e0: a1e5 343e d918 4c3c 404c f83c d4ad 673e
000001f0: d319 5f3e c791 c43d a185 ba3e e21c 44be
00000200: 5edf 7b3e a682 6fbe bfce 3d3e 69de 5abd
00000210: 97f8 11bd 2921 993e 0fef 523c d291 153e
00000220: 7e3b 4b3e 6e92 413d 9424 c33e b0b6 273e
00000230: 48a7 32be ceeb ae3d 8c2a 023c f2a4 29be
00000240: 3979 d2bd 2b96 4abe db6c 213e 3935 a93e
00000250: 98a9 2fbd f926 6e3e 177d 9e3e aac8 683e
00000260: 1159 19bd 7418 003e af2f 883e bff6 183d
00000270: 2ffe c5bd 9276 a93d 4902 2b3e b51b 033e
00000280: c4ca 01be 6ab8 7abe b77a b63d 6e97 64be
00000290: 8d84 7dbe 810d 8d3e 2b3a 813c e8b7 c73e
000002a0: 4922 a43d b422 6fbd e7b8 633e 0794 633e
000002b0: ac0b e2bd aa58 0ebe 970c 39be 6626 8fbe
000002c0: 0c87 a23d a252 1cbe 7053 483e 66e4 9e3e
000002d0: 4d4d d33c e922 50bd 442f d8bd d0d3 623d
000002e0: 991f e0bd 2b3e 7f3e dc55 1abe 675a 26be
000002f0: c18e c8bd 92cb 683e 2137 d2bd a405 bc3d
00000300: a6f0 c1bd eba7 103c 1e43 0abe caab 763d
00000310: 1383 2dbe e102 c5bd ddf7 c23d 85f0 443e
00000320: e1b2 31bd 6090 ed3c 291c 64be 56d0 3e3d
00000330: ca0f c2bd 68df c63d 870d 5fbd d6a2 11be
00000340: 30d4 7b3d 4f6f 8cbe ab15 23be d83e a03e
00000350: 380d 5e3c 0a64 d93d 9406 4abe 47ee cf3e
00000360: c2ae 25be f2d3 8abe cc7f 08be 24f3 473e
00000370: a446 73be 2446 853e da04 2ebe 3ade 35be
00000380: 99b2 21be 86e4 89bd 241f ac3e 5964 09bd
00000390: c9ce 53bd c80b ab3e 9a5f 2bbe 52c0 c0bd
000003a0: 606d 523e a22c 12be 3a22 24be 2434 643e
000003b0: 921a 6b3e 5026 423e d3a6 a3be dad0 88be
000003c0: 0fbd dfbd 12b7 89be 3c8e afbc 7242 84be
000003d0: 5f5e ebbd cebd 8f3e 8e58 39be bd3a 803e
000003e0: 41e5 4e3e f060 0f3e c3a5 4bbe 25af 00bd
000003f0: 68e6 8fbb abaf 58be f0c0 113e c6e9 d83b
-0.16387779 0.30879626 0.18345095 0.3492319 -0.14934981 -0.074523024 0.087763794 -0.03739625
-0.01738695 0.44364527 -0.07743333 0.07289939 -0.052263148 0.18070564 -0.19688237 0.04612754
0.17056297 0.14796092 -0.11590623 -0.16551231 -0.17994542 -0.03927717 -0.02078022 0.1377989
0.06607607 0.28562874 0.2289739 0.17317215 -0.010933811 -0.14839077 0.018840706 0.265695
-0.10101478 -0.10219867 0.23030724 0.15234905 0.013986337 -0.08053411 -0.2253237 0.23759568
-0.08088131 0.30021492 0.26705754 -0.18650326 0.25798434 0.26944476 -0.06700543 0.21368082
0.22537306 -0.087072924 -0.33800885 0.301704 0.3736496 -0.12303929 0.3599641 0.10669263
0.1494669 0.16357382 0.12723425 0.2671095 0.12648307 0.30507103 -0.11498597 0.22616178
0.2997271 -0.01973521 -0.13544658 -0.11828016 -0.11587557 0.1351474 0.09855672 -0.029001348
0.43434352 -0.1669163 -0.1809801 0.08891747 -0.2977133 0.0521911 -0.243129 0.24030058
0.027112227 -0.067422576 0.3445368 0.032764837 -0.17297983 0.08841488 -0.123564295 -0.08905425
0.10360369 0.031204216 0.20457827 0.30356133 0.10438015 -0.14532885 -0.12070654 0.33215278
-0.22021756 0.066613466 0.24603634 -0.012592591 0.026381005 -0.11346926 0.20007798 0.06930861
0.013142245 0.2892176 -0.17484182 0.12826282 -0.2170972 0.17927529 -0.099054076 0.042098552
0.21082817 0.1382953 0.093198866 -0.2909288 0.3005405 0.25256234 -0.21663898 0.071021505
0.17665721 0.012457096 0.030309796 0.22624904 0.21787195 0.09598117 0.36430076 -0.19151643
0.24596927 -0.23389682 0.18535899 -0.053434763 -0.035637464 0.29908112 0.012874379 0.14606407
0.19846913 0.047258787 0.38113844 0.16378284 -0.17446625 0.0854107 0.007944714 -0.16566828
-0.10277028 -0.19783847 0.15764181 0.33048418 -0.042886347 0.23257054 0.3095481 0.22732797
-0.037438456 0.12509328 0.2659888 0.03734469 -0.09667622 0.082745686 0.1670009 0.12803538
-0.12675005 -0.24484411 0.08910125 -0.22323391 -0.24757595 0.27549365 0.015774807 0.39007497
0.08014352 -0.058382705 0.22238503 0.22224437 -0.110373825 -0.1390101 -0.18071209 -0.27958983
0.079359144 -0.15265897 0.19563079 0.3103363 0.025793696 -0.050814543 -0.1055589 0.05537778
-0.10943527 0.24926059 -0.15071815 -0.16245423 -0.09792853 0.22733906 -0.10264421 0.09180763
-0.09469728 0.008829097 -0.13502166 0.060222425 -0.16944532 -0.0961969 0.095199324 0.19232376
-0.043383483 0.028999507 -0.22276367 0.046585403 -0.09475668 0.0971058 -0.05445626 -0.14222273
0.061481655 -0.27428672 -0.15926234 0.31297946 0.013552956 0.10614784 -0.19729072 0.4061148
-0.16179946 -0.27114826 -0.1333 0.19526345 -0.23757416 0.26030076 -0.16994038 -0.17760554
-0.15790786 -0.067330405 0.33617508 -0.033542965 -0.051710878 0.33407426 -0.16735688 -0.09411682
0.20549536 -0.14274839 -0.16028681 0.22285515 0.22959355 0.18959928 -0.31963214 -0.2672184
-0.10924732 -0.26897484 -0.021430127 -0.25831944 -0.11492609 0.28074497 -0.18100187 0.25044814
0.20204641 0.14001822 -0.19887452 -0.03141703 -0.0043914802 -0.21160762 0.14233756 0.006619665

actor_encoder.2.bias f4 [256]
00000000: 6637 833d 3d9f f2bc c8a6 a0bd e14a a63a
00000010: 846f 313d d863 333d 66df 7ebd 71d0 ffbc
00000020: ff12 fb3b bfbb f5bb f8fa e43d 08d1 b43d
00000030: ce27 ce3c fe0d 1f3d d7c5 513c d19c cf3d
00000040: e2c0 933d fc18 b9bc c7fb c0bc d507 8b3c
00000050: c889 07bd e7e1 863c 89a0 513d 31ba 14bd
00000060: 619a 3e3d 6b00 e5bb e959 75bd 1259 19bd
00000070: c46a ba3d 3ed7 ab3d 2168 6b3d d3a8 a7bd
00000080: 1adf 4f3d df4e fd3d 9cf7 ae3d a939 103d
00000090: 9da6 2c3d ec83 583d 6977 a73c a5d4 4a3d
000000a0: d848 253d 8d68 c93d 4602 923c 118c 98bd
000000b0: b124 9c3d a655 8dbd 43dd f6bc f5af bebc
000000c0: b21f 063e 1f69 e3bd 00e7 cb3d df10 76bd
000000d0: 93e7 4fbc 7dd8 883d 4249 cabc 3209 20bd
000000e0: 56c1 b8bc fb3f 563a 7f33 a6bd a2fa bebd
000000f0: 2f1c e9bb b249 b2bb 0849 36bd d2b9 4fbd
00000100: 17a7 193e 209b 85bc 45e2 943d 0bfb 71bd
00000110: 0b60 f0ba edf7 dabc 1ed8 d43c a705 153b
00000120: 3f51 803d 8b52 893c 16db b0bd e440 9ebd
00000130: 4647 d53c 3ee5 ab3c a796 9a3d 4f07 fbbc
00000140: 5578 a03d d5dd 0b3d 7253 513b fbf4 55bb
00000150: 1e0c 163b 7302 023c 582d b4bc cdab 36ba
00000160: 68c0 91bd 28f1 b9bb c230 b83d b834 7abc
00000170: 487e 283c 3081 efba 3558 4e3d f778 ad3a
00000180: 75af 893c 0500 9b3d 2dd3 afbc 147e f0bd
00000190: 1c4b 903d a3a8 423c b578 c63d 3c22 8ebd
000001a0: 69b1 ba3d 25e5 923d f51e 053d 7e67 1f3e
000001b0: 3f0a 013e 1a4b 8dbc b44d 3d3d d04a 14bc
000001c0: 35b1 5bbd 14d2 e9bc e7ff 823c 4a53 673d
000001d0: abc2 02bd a01f 343b 232e 213d e94e 22bd
000001e0: bdfa 643d 4145 833d 040d 113b 39e4 55bd
000001f0: a0e0 a1bb 224c b13d cca6 2bbd bea7 043e
00000200: 8b6f f93c 77c4 87bd f0fa 463c 187d 223c
00000210: a433 c03b 6855 163e dd3c 613c 848d d23c
00000220: 51f9 793d ae7c 39bd e487 953d 22d5 f53d
00000230: 3f42 a73d 3f3a 553d 3bec b23c 620b 983d
00000240: b99d 4fbd 47de 6c3d a179 f23c b038 b43d
00000250: 53d4 c33d 688d 72bb 4d92 963c 9760 213c
00000260: 8e8f 1d3d 8640 943d 1fb3 6fbd ec0c 953d
00000270: 332f e73c c34f c8bc 380f 8fbd 1ded 433d
00000280: 3a68 133e 426d 953d 47ab b43b dbca 883b
00000290: cd42 0e3d 3fbd 3b3d 688a 273d bd48 f6bc
000002a0: 0114 8b3d a3ef 513c a4a0 a0bd e732 fe3d
000002b0: 6c87 c83d a148 0abd 662f 293c 346e f73c
000002c0: 1fd6 dc3c 9bb1 023d 0165 3e3b 0025 e23c
000002d0: a6e9 143e e1c6 013e 6e7d 75bd a7ac 16bc
000002e0: 33cf 6e3d b1f2 443c b1e5 0d3d 33ce b1bd
000002f0: f72c 4abd 247b 24bd b180 dcbc 7864 793d
00000300: ca97 803d 1c1e 023c 4467 03bc a1cc aa3c
00000310: 2b45 38bd a186 f83c 0208 0ebd 611c f73c
00000320: 3a1c eb3d 5880 013b 510d dbbc be56 d23c
00000330: 8a9b 103e 21cd 85bd ae2e 0bbc 0777 bb3c
00000340: 56b5 ee3b 878c a9bc 13b9 6d3d d8ab b23d
00000350: 1724 283d 288f f0bb 72fa be3d 897c 38bc
00000360: d077 fc3d 8270 6e3c f823 593d 9063 a2bd
00000370: 73e9 83bd d37c 113e e2da 7fbd 9c37 833d
00000380: 5078 953c ca1d 6bbc 50ae c5bc c177 8d3c
00000390: 2ca1 46bd 6023 353e f52a 88bc 59db c5b9
000003a0: 7878 abbd 919d 653d c4ce e6bc ce15 14bd
000003b0: c585 493b 91d1 8ebd 593e e03c eba9 6cbd
000003c0: cb94 5b3d cc27 483d 328b 373d b1d4 7a3d
000003d0: 958e e8bc 627e c8bc d26e cd3c 1852 9abd
000003e0: fcee 5bbc 0994 983c 1d07 01bd 8b7b 1f3d
000003f0: 032a c33d e268 e43c 9c3f 853c df76 8dbd
0.06407051 -0.029616946 -0.07844311 0.001268711 0.04331924 0.04379639 -0.062224768 -0.031227322
0.0076621766 -0.0074991877 0.11180681 0.08828932 0.025165465 0.038831703 0.012803516 0.10137332
0.07214524 -0.022594921 -0.023557557 0.016971508 -0.033090383 0.01646514 0.05117849 -0.03631038
0.046533946 -0.006988575 -0.059900198 -0.03743846 0.09102395 0.083906636 0.057472352 -0.081864975
0.050749876 0.12368559 0.085433215 0.03521124 0.042151082 0.052860186 0.020442681 0.0495192
0.040352672 0.098343946 0.01782335 -0.074485905 0.07624186 -0.06901102 -0.030134803 -0.023277262
0.13098028 -0.11104035 0.09956169 -0.060074683 -0.012689489 0.06681917 -0.024693135 -0.03907127
-0.022553127 0.0008172986 -0.08115291 -0.09325148 -0.0071139554 -0.005440914 -0.04450324 -0.05071432
0.15005146 -0.01630932 0.0726972 -0.059077304 -0.001833917 -0.026729548 0.025981959 0.0022738965
0.062654965 0.016762992 -0.08635537 -0.07727221 0.026034962 0.020983335 0.07548266 -0.030643133
0.078354515 0.034147102 0.0031940606 -0.003264724 0.0022895406 0.007935154 -0.021994278 -0.00069683493
-0.07116777 -0.0056745 0.08993675 -0.015271358 0.010284014 -0.0018272754 0.05037709 0.0013234903
0.016807297 0.07568363 -0.021463001 -0.117427975 0.07045576 0.011881026 0.09690992 -0.069401234
0.091158696 0.07172612 0.032500226 0.15566823 0.12601565 -0.017247725 0.04621668 -0.00905104
-0.053635795 -0.028542556 0.015991164 0.056475915 -0.03192393 0.002748467 0.03935064 -0.039626036
0.055903185 0.064096935 0.0022133002 -0.052219603 -0.0049401075 0.08657099 -0.041907117 0.12954614
0.030448696 -0.066292696 0.012144789 0.00991752 0.005865531 0.14681017 0.013747421 0.025702246
0.061028782 -0.04528492 0.0730131 0.120035425 0.08166932 0.0520575 0.02184116 0.07424046
-0.050687525 0.057829168 0.029599013 0.08799875 0.09561982 -0.0037010554 0.018380309 0.009849689
0.038466983 0.07238869 -0.058520433 0.07277855 0.028220749 -0.024452096 -0.069853246 0.04783355
0.14395228 0.0729623 0.005513582 0.004174573 0.034731675 0.045834776 0.04090348 -0.030063981
0.06790925 0.0128134815 -0.0784314 0.124120526 0.09791455 -0.03376067 0.010326242 0.030203916
0.02695757 0.03190766 0.0029051902 0.027605534 0.14542255 0.12673523 -0.059934072 -0.009196437
0.05830307 0.012020753 0.03464288 -0.086819075 -0.049359288 -0.0401565 -0.026916834 0.06088683
0.062789515 0.007941749 -0.008020226 0.020849528 -0.04498784 0.030337634 -0.034675606 0.0301649
0.11479993 0.0019760337 -0.026739748 0.025676128 0.14121833 -0.06533266 -0.008495016 0.022883905
0.0072848005 -0.020696891 0.05803783 0.08724183 0.041050043 -0.0073412843 0.093251124 -0.01126016
0.1232754 0.014553191 0.053012818 -0.07929146 -0.06441011 0.14207773 -0.062464602 0.06407091
0.018245846 -0.014350364 -0.02413097 0.017269017 -0.04849355 0.17689276 -0.016622046 -0.00037738195
-0.08372587 0.05605847 -0.028174765 -0.036153607 0.00307499 -0.06973565 0.02737348 -0.057779234
0.053608697 0.04886608 0.04481048 0.061237995 -0.0283883 -0.024474327 0.025077257 -0.075351894
-0.0134236775 0.018625276 -0.031500924 0.03893618 0.095294975 0.027882043 0.016265683 -0.069074385

pi.0.bias f4 [10]
00000000: cc6c 873d ee66 50bd 7468 20bd dbcf 6d3a
00000010: 53df 243e b130 a93c b189 773c c9ba 023d
00000020: cc6f 763d 0e84 10bd
0.06612548 -0.05087941 -0.039162114 0.00090718054 0.16100816 0.0206531 0.015108512 0.031916413
0.06016521 -0.035282187

onnx::MatMul_28 f4 [9, 256]
00000000: 6cd4 af3e 7e9f c33e d8f6 abbe b39f 963e
00000010: d452 813e 5118 e33e 0015 ab3e 5142 9cbe
00000020: 8c68 41bd a2ad e5bd 2df8 593e 1322 95be
00000030: d494 5b3e df23 afbe 2991 ad3e 3668 ee3d
00000040: c27d b9bd 199f 7cbe a078 623d ad78 583e
00000050: d8c1 0ebd bed2 293e 8e98 9abe 1e8d 8a3d
00000060: 6aff 8a3c 8f3e abbd e7e6 a93e 0e89 93be
00000070: 6b55 ca3e 5f39 0bbf f42f 53be 02b9 09be
00000080: f812 82be 06f1 e1be 7378 77be cdad f63d
00000090: 5604 f13c 577c c03e 49bd 283e 6db2 96be
000000a0: 2147 f2be a579 7dbd e662 5c3e 5443 4abe
000000b0: f146 b83e 8e52 203e 7938 52bd 72dd a2be
000000c0: 5826 413e 082c 8c3c a8b6 cc3d fafe d33d
000000d0: 4bed 963e e45c 813e 6415 a53e 84bc 08be
000000e0: 65ec 21bc d8a7 253e d967 59be ae85 5e3e
000000f0: 9f9f ca3e 6a24 ac3e a536 d73e 6a6a 0f3e
00000100: 32d8 a83e 6d9c f1be ae4e ba3e 7c43 053e
00000110: 03da 3abe a27e 90bd 02c4 b33e 7e82 21be
00000120: 16a9 9c3e 3c96 febe 57f4 af3e 6e2c 43be
00000130: 7e11 163e 98f3 f4bd 353b fcbe 2a76 e63d
00000140: bdf2 0abe dd0c e0bd 1c27 1a3e 201c f63e
00000150: 420f 1fbe 32c6 c23e 0b42 a7be 5118 69be
00000160: 1b6c 343e 3767 c6bd 4ad1 92be 33b5 00be
00000170: ad19 c83e 7d6e c63e 0b75 f73d 9bf2 93be
00000180: 7861 b93e 0897 fbbe b3ee 163e d7dd 223e
00000190: 5d86 8cbd e312 f93c 2cdb 29be caa9 813e
000001a0: 2f1e 63be 83ad 84bd 90d6 8fbd 01a7 96bd
000001b0: dbce a43e 59d3 2f3d 3e2a 74be 687b 843e
000001c0: eed2 5d3e bb54 f0be 2cae 453e fe3a a9be
000001d0: df6e d63e 237c 6fbe ced0 0e3e 76b7 dabe
000001e0: fb29 a2be 1560 a23e a9ad 23be 0eb2 83bd
000001f0: aeb6 03be 8c13 963e 4497 1fbd 1cd7 6d3e
00000200: 99f4 603e d6a9 40be a670 cabe 1f90 b8be
00000210: 7bf6 c1bd 06cb fc3d 0892 c53e a60e 9fbd
00000220: 7a1e 163e 9573 593e 3cb8 433d 6fdb 0b3e
00000230: a297 4a3e 7aa9 aa3e 905e bd3e c98e aa3e
00000240: 7900 ddbe 64ef d73e dd7e 83bd b5f3 233d
00000250: e0e3 bc3e a770 c3be e1c8 fe3d 3d60 e4be
00000260: 8b87 45be e98b c03e 8d85 aa3e ff25 debe
00000270: 12af 613e 2f73 8cbe 0dd9 afbe 4f3a b4be
00000280: 5ad9 afbe 9c9c 6c3e 2f31 8b3d da7f a5bd
00000290: 5b7b 90be 5545 20be 61f4 05be 7294 b03e
000002a0: 2029 d2be 3499 d3bd 8d23 96bb c073 2ebe
000002b0: e394 333e 9b25 54be 00f2 513e 2680 e5be
000002c0: 39c9 863e 5476 be3d 576f 1e3e 630f d73c
000002d0: 5151 543e 9910 2a3e 7be5 a13d bdf5 2d3c
000002e0: 3e8c 2a3e 6dad 7a3d c40c 593e 55c0 1a3e
000002f0: 1fa9 b6be 1161 3e3e 729c bd3e fa64 4a3e
00000300: 9dbe b93d 9fd2 bc3e 36d9 d23e c98d 9cbd
00000310: 8e54 473e a77d b63e 3284 013e 71d3 dfbe
00000320: fabe 273e 7f9e 913e e33c ce3d 42cc 63be
00000330: 8fce 823d 9e68 993e f8d2 ce3c 117a acbe
00000340: 1e0e f2b9 44c6 f0be 0112 943e 967a 46be
00000350: 731a e23e 91be 4f3c 1693 5a3e f13c cc3d
00000360: 9ec0 bebe 05d6 79be f1b5 5e3e d987 c7be
00000370: ed7d a8be 38e5 60be 7156 3b3d 97b1 7b3e
00000380: 5114 c03d 79f7 14be cef0 eebd a0ef 5bbe
00000390: b6b7 00be 0017 e0be d14b f33c b318 853e
000003a0: 3dc7 b3be 11c5 cabe 4f90 0ebc 49be 613e
000003b0: f5c7 d3bd 8ca5 813e 2d05 98be 84ab a7be
000003c0: 9df7 c13d 03f9 853e 8aa0 61be f2b4 9c3e
000003d0: f7d9 8cbe 14ff cd3e 8576 0ebe 3351 49be
000003e0: 1835 b3be ac99 88be d266 f83e 7f1d 34be
000003f0: 7c58 a1be c3f3 643e 875c e63e f5c4 64be
0.34341753 0.3820762 -0.33586764 0.29418716 0.25258505 0.4435449 0.3341446 -0.30519345
-0.047218844 -0.112147585 0.21286078 -0.2912756 0.21443492 -0.34207055 0.3389981 0.116409704
-0.090571895 -0.24670066 0.05529082 0.21139784 -0.034852833 0.16584298 -0.30194515 0.06765197
0.016967494 -0.083615415 0.33183977 -0.28815502 0.39518294 -0.54384416 -0.20623761 -0.13449481
-0.25405097 -0.441292 -0.24167041 0.120448686 0.029421013 0.37594864 0.16478457 -0.29433003
-0.47319892 -0.061883587 0.21522102 -0.19752246 0.35991624 0.15656492 -0.051323388 -0.31809574
0.18862283 0.01711084 0.099957764 0.10351367 0.29477915 0.25266182 0.32242882 -0.13353163
-0.009883021 0.16177309 -0.21231021 0.21730682 0.39574906 0.33621532 0.42033878 0.14005437
0.32977444 -0.47189656 0.36388153 0.13014024 -0.18247227 -0.07055403 0.3511048 -0.15772435
0.30597752 -0.49723995 0.34366104 -0.19059917 0.1465511 -0.11960524 -0.4926392 0.11253007
-0.1356916 -0.109399535 0.15053982 0.48068333 -0.15533164 0.38041836 -0.32667574 -0.22763182
0.17619364 -0.096876554 -0.286753 -0.12569122 0.3908209 0.3875617 0.12082871 -0.2889603
0.36207175 -0.49138665 0.14739494 0.15904938 -0.06861565 0.030404514 -0.16587514 0.2532485
-0.22179483 -0.06478407 -0.070233464 -0.07356072 0.32189068 0.042926166 -0.23844239 0.25875401
0.21662495 -0.46939644 0.19304723 -0.3305282 0.41881463 -0.23387198 0.1394684 -0.42718095
-0.31672654 0.3171393 -0.15984215 -0.064304456 -0.12862656 0.29311788 -0.038962618 0.23226589
0.21968307 -0.18814787 -0.3953907 -0.36047456 -0.094708405 0.12343411 0.38587976 -0.07766466
0.14660063 0.21235497 0.04778312 0.13657926 0.19784406 0.33332425 0.36986208 0.3331206
-0.43164423 0.42174828 -0.064206816 0.04002734 0.36892605 -0.38171884 0.12440658 -0.44604674
-0.19289987 0.37606743 0.33305016 -0.43388364 0.2203944 -0.27431628 -0.34345284 -0.35200736
-0.34345514 0.23106617 0.067964904 -0.080810264 -0.28219113 -0.15651448 -0.13081504 0.34488255
-0.41047 -0.103319556 -0.0045818747 -0.17036343 0.17537265 -0.2071747 0.20502472 -0.44824332
0.26325396 0.09299913 0.1547216 0.026252454 0.20734145 0.16607894 0.07905098 0.010617671
0.1665506 0.061200548 0.21196276 0.15112431 -0.35675904 0.18591715 0.3703342 0.19765082
0.0906956 0.3687944 0.41181344 -0.07644231 0.19465849 0.3564274 0.12648085 -0.43716004
0.16381446 0.28441235 0.10070207 -0.22245887 0.06387054 0.2996263 0.025247082 -0.3368688
-0.00046168355 -0.47026265 0.28919986 -0.193827 0.44160804 0.012679712 0.21345171 0.09972561
-0.3725633 -0.24398048 0.21749093 -0.3897083 -0.32908574 -0.2196244 0.045736734 0.24579464
0.09378875 -0.14547528 -0.116670236 -0.21478128 -0.1257008 -0.43767548 0.029699238 0.25995407
-0.35112944 -0.39603475 -0.008701398 0.22045244 -0.10340873 0.25321615 -0.2969145 -0.32748044
0.094710566 0.26166543 -0.22033897 0.306068 -0.27510044 0.40233672 -0.13912399 -0.19659881
-0.35001445 -0.26679742 0.48515946 -0.17589377 -0.3151282 0.22358613 0.44992468 -0.22340758

onnx::MatMul_29 f4 [256, 256]
00000000: b10f ffbd 5228 d83d 6401 0d3e fa62 833d
00000010: 7d2b 24be 09b0 66bd e12f a93d b006 dc3a
00000020: 2f5f 11bd 71e4 94bc f588 b5bd 04bf 153c
00000030: 4885 5dbd 1cdf dabb 8b5f 273d fa6e 46bd
00000040: e443 713c 77ef 2cbd 8871 35be 3b25 2abe
00000050: da55 c4bc ffc1 74bc fb4f 47bd 2117 babd
00000060: 7ff0 a93d d8b1 17bd f31f cfbe 4f50 86bc
00000070: 5b77 8a3d 1fa8 71bd b5e9 743c 7f7f 5bbc
00000080: 2b37 2ebc cdbf 393c bd8d 69bd 090f e63d
00000090: 1dda 07be 724a d7bc 8a52 29be b20b 81bc
000000a0: 0fa8 59bd 45b9 0fbd aa4c 213d ad23 24be
000000b0: 6e40 0ebe 46cc d9bd 27ce b73d 2c73 c43c
000000c0: 2cda e3bd 2525 b33c 7722 8fbd 6332 023d
000000d0: 5618 51bc 0c43 9dbd b64d 3f3d 7bb4 8a3d
000000e0: 8ce2 c63d a921 a0bb 789a 4e3d fa6d 163e
000000f0: ed4a 203d c59a dcbc 0f4a 6d3c 3f20 fdbd
00000100: 52f2 b1bd c397 82bd 27df ea3c 2a32 0a3d
00000110: faf2 d03d 225f 1b3d 2ffd b33c 4c6c edbd
00000120: 9f20 9fbd 6222 39bd 1898 a63d 0bf7 bc3d
00000130: e076 cebd 1b01 fc3c b755 193c a391 5a3d
00000140: da0e 08be fa61 07be ea66 f0bd 46d5 f7bb
00000150: 9e9a fe3c 841e fbbc a0ab 8abc dd7c d5bd
00000160: 7801 463e 57c6 c1bc 08af 823c 09f3 043d
00000170: 45ce d3bd c90a d5bd 31ba 8dbd 17ea 7ebc
00000180: f920 21be a029 64bd 9b96 d9bc ef92 54bb
00000190: 11c5 f83c 06b9 703c aab9 8b3c 7c98 2abd
000001a0: 3f1e 71bc 9bf3 b43d e7a2 7e3d f34a bbbd
000001b0: 7787 d2bd b09d 0f3d 1471 0d3d e290 e3bd
000001c0: 6a17 6e3d 02ba 78bd dfc8 b53d 5ffa 77bc
000001d0: a2c0 1abe d6b4 a13d 409f fabd 12de 1f3e
000001e0: a6cf 35bd 4950 093d 7338 853d d631 f8bd
000001f0: 4e6d b93d 4892 94bd 34f0 3bbc a53b a23c
00000200: 9ff6 2a3d 8018 0e3e 2e40 aa3d 3dd0 253e
00000210: a96c 603e b3e9 a4bb 8de7 0fbc 7bd7 14bd
00000220: a4a5 30bd b431 ea3c 2f5f 093e 4abe d53c
00000230: 167f b5bd 5c59 9a3d be31 30be 724b 86bd
00000240: 5a61 573d 190b b4bd 8d08 863c 101b 703b
00000250: d50b 77bc 29ae 193e 08e9 dd3d 4a5e adbd
00000260: 43ed ab3c d12b 97bd 07de 60bd ce39 5abd
00000270: 8ab1 43bd bf2a 74bd 64ed f7bc e429 d2bd
00000280: 563a c4ba af75 ccbd 3d04 453c 3df3 9fbd
00000290: b2c4 163d 054e 2ebd fecc e0bb 6f6a 6c3d
000002a0: a6fd 103d d9f0 2d3e 095f ea3d 7158 61be
000002b0: 1a6b 93bd d553 8d3d 4326 0b3d fd97 23bd
000002c0: 7877 c13c ff2b 1dbe 821c 29be 20f9 4abe
000002d0: 17f9 dfbd 7cfe 253d e526 2c3e 0aae 953d
000002e0: e0d6 8d3d a2f0 793b cd4e 65bd 2448 3a3e
000002f0: e0ba 0c3e 4d96 6fbd d57b 50bd fce4 b3bd
00000300: 602f f33d b96a 1abe c50d ef3c ab43 a3bd
00000310: afec 38bd ea00 4e3d 57ae e83d 0453 a3bd
00000320: 330d 0ebe 563b 7fbd 6656 803d ee61 f53b
00000330: e32e 9ebd a2d2 1d3d 4118 8bbd 8f41 afbd
00000340: 2ddf b73d 2a4a 98bd 5dde 523d 3566 a23c
00000350: 47f0 6f3d a481 1ebe c616 80bd c7a6 eebd
00000360: 2773 40bd f462 cd3c 4ce9 c8bd e76e 743b
00000370: 2ef2 923d 4587 053d 06b5 123e 0a87 773d
00000380: a54f 7bbd 2dd4 61be 5dbd 12bd 3979 2a3d
00000390: 57f6 c5bc d483 cdbd 6ad8 2c3d 8c0f a33c
000003a0: d62e 51be f875 cebc 3c99 d6bc 100b da3c
000003b0: 11b2 1bbd c9ff 363d 0377 98bd 1e9a 393d
000003c0: c259 bf3c cf22 2a3c 15b5 f4bc a7e0 563d
000003d0: 8862 dd3c f2c1 e83d 23ad d73c 622b 1d3d
000003e0: 03ac 80bb 97e4 243c 1a3b 1e3d 529f 253e
000003f0: 3bc1 7ebd 2037 c43d 3077 2e3d 4d8f 343e
-0.12454165 0.105545655 0.13770062 0.06415363 -0.16032214 -0.056320224 0.08261085 0.0016786661
-0.035491165 -0.018175336 -0.08864013 0.00913978 -0.054082185 -0.0066794287 0.0408626 -0.04844568
0.014725659 -0.04222056 -0.1771909 -0.16615765 -0.023966718 -0.01493883 -0.04866026 -0.09086443
0.08297824 -0.03703484 -0.40454063 -0.016395716 0.067610465 -0.058998223 0.014948298 -0.013397097
-0.01063327 0.011337233 -0.057019938 0.112333365 -0.13266797 -0.026280615 -0.16535392 -0.015752647
-0.05313879 -0.035088796 0.039379753 -0.16029234 -0.13891765 -0.10634665 0.08974867 0.0239807
-0.11125597 0.021868298 -0.069889955 0.031786334 -0.01276215 -0.07678804 0.04670497 0.06772705
0.09711179 -0.004886825 0.05044028 0.1469039 0.039133955 -0.026929269 0.014482989 -0.12359666
-0.08688797 -0.063766025 0.02867086 0.033739246 0.10202594 0.037932523 0.021971313 -0.115929216
-0.07769894 -0.045198806 0.08134478 0.09226807 -0.10081267 0.030762246 0.009358815 0.053361546
-0.13286915 -0.13220969 -0.11738379 -0.007563266 0.031079587 -0.0306542 -0.01692754 -0.104242064
0.19336498 -0.023654146 0.015952602 0.03245834 -0.10342077 -0.10402448 -0.06920279 -0.015558741
-0.15735234 -0.05570376 -0.026561072 -0.0032436212 0.030367406 0.0146925505 0.017056305 -0.041649327
-0.014716684 0.088355266 0.062167075 -0.09145155 -0.10279744 0.035062492 0.034531668 -0.111116186
0.0581278 -0.060724266 0.08876204 -0.015135377 -0.15112546 0.0789582 -0.12237406 0.15612057
-0.044387482 0.03352383 0.065049075 -0.121188805 0.09054051 -0.072544634 -0.011470843 0.019803831
0.041739102 0.13876534 0.083130226 0.16192718 0.2191645 -0.005032742 -0.008783233 -0.03633831
-0.043126717 0.028588153 0.13415216 0.026091713 -0.0886213 0.07536575 -0.17206475 -0.06557359
0.052583076 -0.08791179 0.0163615 0.0036637224 -0.015078505 0.15007843 0.10835463 -0.0846525
0.020987159 -0.07381404 -0.05489924 -0.053277783 -0.047776736 -0.05961108 -0.030264564 -0.10261896
-0.0014970999 -0.09983384 0.012024936 -0.07810066 0.036808677 -0.042554874 -0.0068603745 0.05771869
0.035398148 0.16986407 0.11443908 -0.22006394 -0.071981624 0.06900755 0.033972036 -0.03993987
0.023616537 -0.15348814 -0.16514781 -0.19821596 -0.10936182 0.0405259 0.16811712 0.07308586
0.0692575 0.0038137813 -0.055983353 0.18191582 0.13743162 -0.058492947 -0.050899345 -0.0878391
0.118742704 -0.15079774 0.02918137 -0.07971891 -0.045147594 0.05029384 0.11361378 -0.07974818
-0.13872223 -0.062312447 0.06266479 0.007488481 -0.07723787 0.038530953 -0.067917354 -0.08557426
0.08978114 -0.07436021 0.051481593 0.019824127 0.058578756 -0.15479141 -0.06254344 -0.11652904
-0.046984818 0.025071599 -0.09810123 0.0037297548 0.07175098 0.032599706 0.14326867 0.060431518
-0.06135525 -0.22053595 -0.035825122 0.041619513 -0.024165316 -0.1003491 0.042198576 0.019904874
-0.20428023 -0.025202736 -0.026196115 0.026616603 -0.038011614 0.04467753 -0.07444575 0.045312993
0.02335823 0.010384276 -0.029871503 0.05246034 0.027024522 0.11365117 0.026327675 0.03837145
-0.0039267554 0.010064266 0.038630582 0.16174057 -0.062195998 0.09580827 0.042594135 0.1763279

onnx::MatMul_30 f4 [256, 10]
00000000: d96f e4bd 19ed c43d f705 f4bd 5e4b 6ebd
00000010: e985 eb3d a3e9 dfbd 3d5f 77bc 1345 6a3e
00000020: 0069 79bd b42b 6dbd c1d2 52be f5e4 66be
00000030: 053a dabb 9dda 023e 5307 44be fec7 ff3d
00000040: 5cfb c93d 74bb 353e 1e1b 8a3d 180d 2e3d
00000050: f6e3 d53d 3b70 61bd e881 19bd 2e4f 19be
00000060: 5080 a6be b255 193e 95d4 f23d 4a19 0ebc
00000070: 3bd0 263e e4af 713d 2588 23bd a42e c5be
00000080: 15c3 b13d 085e 2ebe 7af8 76bc dc0b 46bd
00000090: fb66 543e dc35 9a3e 79a8 e1bd e40a d0bc
000000a0: 70bf 0e3d 78eb bebd 1ba3 e93d e182 323e
000000b0: e68a 4fbd 6e0f 693d 7b4c d8bb 15bd 3fbe
000000c0: 67f2 4b3e 0c09 c73c 2e44 95bc 68bf 43be
000000d0: ec73 4abc 258a 893d 31e4 133e b3f8 193d
000000e0: 3ff1 833d 561a 37be 2c3f 803d 70f7 d4bb
000000f0: 7deb 003e 223d 553e f888 563e ac0d 57bd
00000100: 077f 0bbe c41a 9cbd 0ed6 43be 45f8 603d
00000110: 0fb6 67be 60ce 49bc 6f5e 0fbe b237 503e
00000120: 7280 373d 1f28 21be 5615 f0bd edd3 173e
00000130: 6636 68bd 95ab c7bd 1e9f e9bc 3c09 7e3d
00000140: 6d3a b23c 7d3d 243e a873 d8bd f9b6 a13d
00000150: 7f50 113e 4f4f 0bbe 5c43 3dbc 52db 023e
00000160: caa1 b3bd aa84 3c3d 449d 683d 0d30 033d
00000170: bb61 4c3e 3f57 53be ed7f d9bc e52a 1bbe
00000180: fb71 233d 4279 03bd 3070 163e 806c 87bb
00000190: 86b2 23bd 9399 43bd 9b88 24be 1c51 043e
000001a0: 5e5f 303e ab31 abbd 4439 edbd 39f9 913d
000001b0: a2d1 b4bd e8e4 6a3c f7c2 233e 5f32 ad3d
000001c0: 3d72 823c e5d8 083e 38a8 123e 6436 aa3c
000001d0: 0fe8 14be 52e3 f9bd 88e7 d9bd 9cbb c0bc
000001e0: 0c24 c93b da86 7fbd 6ed7 213d 160e 2fbe
000001f0: 7ba7 cfbb 5de5 54be df17 3c3e 0885 fd3d
00000200: c306 ba3c 9c07 eb3c 92e8 16be 0415 2e3d
00000210: 25fa 583e d657 26be 5631 d6bd 7cf0 99be
00000220: 15a3 243e 2d89 ddbd 12f7 273c f0cb cb3c
00000230: 26f4 f93d c36d 263d 6caa 273c ca6b 5bbe
00000240: 801c 603d d624 f6bd bc26 7d3d 64a4 323d
00000250: 023e c1bd 9863 0c3c 60db b83d c2ef bbbd
00000260: 1816 183e 1bb3 d1bd 068f ef3d 0520 8abc
00000270: f9cf f4bb 3ed7 0ebe 65f6 adbc c8da 013d
00000280: 377e d03d 99a4 10bd 707f c2bc 25c7 84bd
00000290: 21bd 203e a981 64be 1832 f23d 6de7 3cbe
000002a0: c0c5 54bd 1c18 5e3d eb75 e4bc 3023 35bd
000002b0: 692f 48bd 7134 1c3d 0d2f 193d 5274 04bd
000002c0: a03a 1bbd 9f11 3a3d 53ed 943b 7a48 44bd
000002d0: 9790 54be 4075 58be 4929 da3d 2252 0b3a
000002e0: d046 3ebe 39e6 033e 964c 03bd e08e 433e
000002f0: 3f89 673e 0c0a a33c f8b1 823d e467 82be
00000300: f09e c53c a524 e53d fe97 f5bd cd05 cf3d
00000310: 6112 b7bd ff4a f8bd 5ce0 893d ee96 4b3d
00000320: 4726 12be 0e86 cb3d dec4 b43d 6ea1 ec3d
00000330: c69a 62bd a37a acbd 6037 dbbd ce9f 893c
00000340: b3fc 43be 7822 123d f7db 8bbe 25e7 e83c
00000350: e811 a23e 73e7 133e 51bf 2cbc 9b70 c1bc
00000360: 7caf 673e 9061 ca3d 7630 adbd 10bb e3bc
00000370: 795f 86bc bc11 2dbe 7bca fcbc bdf8 04bc
00000380: 6174 3a3e 8e24 2dbe 8b5d 9abd 5f2e 00be
00000390: 5c37 8f3d 8a37 4d3d f0e5 fc3c 5138 95be
000003a0: e7a0 473e 6a5a a7bd 79a8 1b3e f55d cbbd
000003b0: ec17 983c 319f cdbd 5c9c a03c 302f ca3b
000003c0: fd25 17be a66e c13d 3601 40be d066 423e
000003d0: 6904 a93d e1e2 e43d a833 08be 6e0a a53d
000003e0: 020d 92be 528b 1b3d 5f5d 373e 6142 013e
000003f0: e4c9 3d3d 9a41 3b3e abe0 6ebe de70 2a3e
-0.11154146 0.09615535 -0.119152 -0.058177345 0.11500151 -0.109332345 -0.01509839 0.22877912
-0.06089115 -0.057903007 -0.20588209 -0.22548278 -0.0066597485 0.12778707 -0.19143419 0.12489317
0.09862396 0.17747289 0.067434534 0.042492956 0.10443871 -0.055038672 -0.037477404 -0.14971611
-0.3251977 0.14974096 0.11856953 -0.008673022 0.16290371 0.059005633 -0.03992476 -0.38512146
0.08679787 -0.17028058 -0.01507389 -0.048351154 0.20742409 0.30119216 -0.11018462 -0.025395818
0.034850538 -0.09322256 0.11408063 0.17432739 -0.050669573 0.05689948 -0.006600914 -0.18724473
0.19916688 0.024296306 -0.018220987 -0.19115984 -0.0123567395 0.06715802 0.14442517 0.037590694
0.064424984 -0.1788114 0.06262049 -0.0064992234 0.12589832 0.20824102 0.20950687 -0.052503273
-0.13622676 -0.07622293 -0.19124624 0.05492427 -0.22628044 -0.01231727 -0.14000867 0.20333746
0.04480023 -0.15737961 -0.117228195 0.14826937 -0.056692503 -0.097495236 -0.028518256 0.062020525
0.021756375 0.16039081 -0.10568935 0.078962274 0.14190863 -0.13604473 -0.011551704 0.12778977
-0.08771093 0.046024956 0.056790605 0.032028247 0.19959156 -0.2063875 -0.026550258 -0.15153082
0.039903622 -0.032098062 0.14691234 -0.0041328073 -0.039965175 -0.04775388 -0.16067736 0.12921566
0.1722388 -0.08359083 -0.11583188 0.071276136 -0.08829047 0.014336802 0.15992342 0.08456873
0.015923614 0.13363989 0.14321983 0.020777889 -0.14541648 -0.12201561 -0.10639864 -0.02352696
0.0061383303 -0.062384464 0.03951209 -0.17095217 -0.006337104 -0.2079062 0.18368481 0.12378889
0.022708302 0.028690152 -0.14737156 0.04250051 0.21189173 -0.16244444 -0.10458629 -0.30066288
0.16077836 -0.1081718 0.010251777 0.024877518 0.12204771 0.04063202 0.010233503 -0.21427837
0.05471468 -0.12018745 0.061804518 0.043613806 -0.09435655 0.008568667 0.090262175 -0.091765895
0.14852178 -0.1023924 0.116972014 -0.016860971 -0.0074710813 -0.13949296 -0.021235654 0.031702787
0.101803236 -0.035313223 -0.023742408 -0.06483296 0.15697147 -0.22315086 0.11825961 -0.18447657
-0.0519464 0.05422221 -0.027888259 -0.04422301 -0.04887334 0.03813595 0.037398387 -0.032337494
-0.037897706 0.04542696 0.004544893 -0.04792068 -0.20758282 -0.21138477 0.10652406 0.0005314668
-0.185817 0.12880792 -0.03205546 0.19097471 0.22610949 0.019902252 0.06381601 -0.25469887
0.024123639 0.1118863 -0.11991881 0.10108528 -0.089390524 -0.12123679 0.06732246 0.049704485
-0.14272414 0.09937678 0.08826612 0.11554228 -0.055323385 -0.084218286 -0.10703921 0.016799834
-0.19139366 0.035677403 -0.27316257 0.02843053 0.31654286 0.1444376 -0.01054366 -0.023613265
0.22625536 0.0988189 -0.08456509 -0.02779916 -0.016402947 -0.16901296 -0.030858269 -0.008115944
0.18208458 -0.16908476 -0.07537373 -0.12517689 0.06992981 0.050101794 0.030871361 -0.29144529
0.19494973 -0.08171542 0.15200986 -0.0993003 0.018566094 -0.10040129 0.019605808 0.006170176
-0.14760585 0.09444933 -0.18750462 0.18984532 0.08252794 0.11176086 -0.13300955 0.0805863
-0.2852555 0.037974663 0.17906712 0.12622978 0.046335116 0.18286744 -0.23327892 0.16644618
